ml/models/cnn15_best.pth (torch, 20834 bytes, 8 tensors)

conv1.weight f4 [8, 3, 3, 3]
0.08880989 0.105417885 0.2885191 -0.044029776 -0.17410126 0.28628388 0.11019184 -0.047638968
0.28776503 -0.09261979 -0.0558208 -0.25160313 -0.014560053 -0.047294572 -0.15433082 -0.1267243
-0.07916098 -0.11178923 0.22212952 -0.16208367 -0.007343712 -0.046761274 0.07641929 -0.11947037
0.20985955 0.047660492 -0.14000915 -0.1468976 0.10826509 0.20681489 0.022377381 -0.03875022
0.29596084 0.15930802 0.1456943 0.29597098 -0.06846666 -0.1876448 -0.23703334 -0.16296855
-0.03608835 -0.032582447 -0.009953219 -0.27206782 -0.26677892 0.05396088 0.23541467 -0.14369534
0.13340712 0.032553215 0.027010705 0.28257084 -0.21603896 0.25246882 0.05363786 0.07009984
-0.054782752 -0.13797136 -0.14344268 -0.15951742 -0.07567073 -0.04774333 -0.15287474 0.25449544
0.22294147 0.113469094 0.24102673 0.1030032 0.20207277 0.15679704 0.14537595 0.14765339
-0.06649516 -0.08158367 0.0653944 -0.16866389 -0.17971672 -0.15639691 -0.27668074 -0.24876201
-0.28938955 0.2781502 0.1393541 0.0028592483 0.12763664 0.010242376 0.19686778 0.15155335
0.06204365 0.21765389 -0.132721 -0.15945333 -0.28126848 -0.23308975 -0.08019648 -0.1867584
-0.1455497 -0.29066047 -0.038452897 0.086429484 -0.04607393 0.037833937 0.184598 0.17683607
0.103630364 0.13922478 -0.100997806 0.050266877 -0.28037253 0.020031026 -0.19208516 0.06345228
0.15911761 0.24324626 -0.24620925 0.07574561 0.12592277 -0.20509954 0.07722778 -0.107335016
0.20286171 -0.029271757 -0.07857797 -0.06910154 -0.14497839 -0.20547318 -0.28382555 0.050888173
-0.041605458 0.050901797 0.13571909 0.08979343 -0.09282366 0.24113473 0.13873678 -0.05685921
-0.17449188 -0.2606126 0.10516265 -0.053924825 0.20590264 -0.020861933 -0.065414004 0.11544781
0.07609571 -0.08512882 -0.03328225 0.09710121 -0.051789887 0.2893911 -0.0319487 -0.14800873
-0.23460689 0.15410726 0.11330295 0.008264642 0.25949967 -0.1332852 0.20066904 0.039593823
-0.25997755 -0.2565873 0.29001287 -0.24764986 -0.16422403 0.10518949 0.25300413 -0.04176717
0.054144155 0.10703123 -0.074847594 0.24373074 -0.0484733 -0.15855852 -0.23851028 0.1589
0.24713275 -0.16896828 -0.13864231 0.07222431 0.110728115 -0.23465236 0.06318274 -0.019536074
0.05217869 0.02001941 -0.25220892 0.11927378 0.05482098 -0.04010677 0.25710422 0.2402922
-0.1370273 0.09284929 -0.1669423 0.033763006 -0.010136115 0.26118514 -0.17561698 -0.10248365
0.008703424 0.026292913 0.03552106 -0.047110893 0.12090902 0.19363633 0.08516975 -0.28362623
0.16454184 -0.0451988 -0.047780495 -0.14515579 -0.019976238 -0.13212517 -0.048988424 -0.1387015
00000000: f6e1 b53d 55e5 d73d c7b8 933e 9158 34bd
00000010: 9a47 32be cd93 923e 42ac e13d 1421 43bd
00000020: f055 933e 72af bdbd 5aa4 64bd 20d2 80be
00000030: 4a8d 6ebc f4b7 41bd e608 1ebe 04c4 01be
00000040: 271f a2bd c0f1 e4bd ec75 633e 43f9 25be
00000050: 85a3 f0bb c088 3fbd b781 9c3d e2ac f4bd
00000060: 6ce5 563e a637 433d 8f5e 0fbe 536c 16be
00000070: 16ba dd3d 48c7 533e c550 b73c 8db8 1ebd
00000080: 2e88 973e a421 233e e330 153e 8289 973e
00000090: 4038 8cbd f525 40be deb8 72be 3ae1 26be
000000a0: 61d1 13bd 2c75 05bd d412 23bc 794c 8bbe
000000b0: 3f97 88be 1506 5d3d 8b10 713e df24 13be
000000c0: e09b 083e 8556 053d 8e45 dd3c 20ad 903e
000000d0: 5139 5dbe 9843 813e 5fb3 5b3d 8190 8f3d
000000e0: e163 60bd 5d48 0dbe a3e2 12be 8958 23be
000000f0: 41f9 9abd 838e 43bd 328b 1cbe 3a4d 823e
00000100: c54a 643e 7c62 e83d b6cf 763e 57f3 d23d
00000110: 2aec 4e3e 678f 203e 6fdd 143e 7332 173e
00000120: 9d2e 88bd 5715 a7bd 80ed 853d 3ab6 2cbe
00000130: a907 38be 8326 20be 19a9 8dbe 78bb 7ebe
00000140: de2a 94be b469 8e3e d7b2 0e3e 3a62 3b3b
00000150: 2eb3 023e a3cf 273c b597 493e cd30 1b3e
00000160: 7b21 7e3d a9e0 5e3e 04e8 07be bc47 23be
00000170: 6c02 90be 14af 6ebe 0d3e a4bd 983d 3fbe
00000180: fb0a 15be 73d1 94be c980 1dbd f101 b13d
00000190: 04b8 3cbd c2f7 1a3d 4207 3d3e 8414 353e
000001a0: 283c d43d f190 0e3e f0d7 cebd a4e4 4d3d
000001b0: fd8c 8fbe 1b18 a43c f9b1 44be 45f3 813d
000001c0: baef 223e 8c15 793e 471e 7cbe 8420 9b3d
000001d0: e6f1 003e 9d05 52be 9929 9e3d 76d2 dbbd
000001e0: fbba 4f3e 53cb efbc 7ded a0bd 1c85 8dbd
000001f0: 3775 14be 9067 52be 9551 91be 1e70 503d
00000200: 7c6a 2abd 677e 503d f2f9 0a3e 9ee5 b73d
00000210: 551a bebd 06ec 763e 0411 0e3e 34e5 68bd
00000220: 00ae 32be 046f 85be 845f d73d 47e0 5cbd
00000230: 24d8 523e a5e6 aabc c7f7 85bd e76f ec3d
00000240: 11d8 9b3d 0558 aebd f852 08bd 00dd c63d
00000250: a221 54bd 122b 943e a4dc 02bd 9a8f 17be
00000260: ca3c 70be 4bce 1d3e 610b e83d 6c68 073c
00000270: 24dd 843e ea7b 08be 2f7c 4d3e 222d 223d
00000280: c71b 85be 695f 83be 917c 943e ed97 7dbe
00000290: 582a 28be 966d d73d c289 813e 0d14 2bbd
000002a0: 43c6 5d3d 3133 db3d b249 99bd 8d94 793e
000002b0: f08b 46bd 2a5d 22be 0a3c 74be aeb6 223e
000002c0: 5e10 7d3e 0506 2dbe 40f8 0dbe 57ea 933d
000002d0: 6cc5 e23d b548 70be f465 813d 1e0a a0bc
000002e0: 52b9 553d bfff a33c 8721 81be d045 f43d
000002f0: f78b 603d ff46 24bd 2aa3 833e 290f 763e
00000300: e250 0cbe c527 be3d ecf2 2abe 144b 0a3d
00000310: f311 26bc 0fba 853e f0d4 33be f3e2 d1bd
00000320: ce98 0e3c 3c64 d73c 887e 113d 5af7 40bd
00000330: 269f f73d 9a48 463e 7a6d ae3d 7537 91be
00000340: a87d 283e 6022 39bd 7bb5 43bd b8a3 14be
00000350: 35a5 a3bc d24b 07be 16a8 48bd c407 0ebe

conv1.bias f4 [8]
-0.016019212 0.017003112 -0.12287847 -0.20409116 -0.0876118 0.054486822 -0.01601717 -0.15952323
00000000: b93a 83bc 1c4a 8b3c b5a7 fbbd 46fd 50be
00000010: d16d b3bd 932d 5f3d 7136 83bc 0f5a 23be

bn1.weight f4 [8]
1.9072404 2.1321564 0.61877006 1.2862093 2.403174 0.829673 0.87415683 0.63095576
00000000: 7420 f43f 4075 0840 b767 1e3f 82a2 a43f
00000010: 9acd 1940 7365 543f bec8 5f3f 5186 213f

bn1.bias f4 [8]
0.15932788 0.6935124 -0.5121122 0.40843913 -0.9020474 -0.4193788 -0.66397727 -0.3053812
00000000: d926 233e 078a 313f c919 03bf ef1e d13e
00000010: 94ec 66bf d1b8 d6be 6afa 29bf ed5a 9cbe

bn1.running_mean f4 [8]
0.083299264 0.25955832 -0.46154937 0.010642936 -0.19680905 -0.11641769 0.21203098 0.018089488
00000000: ce98 aa3d d4e4 843e 3350 ecbe b65f 2e3c
00000010: 5088 49be 666c eebd a61e 593e 6830 943c

bn1.running_var f4 [8]
0.018858187 0.030980395 0.06475813 0.027524937 0.050580196 0.05097481 0.028257366 0.031692
00000000: 7c7c 9a3c 99ca fd3c e99f 843d fa7b e13c
00000010: 2e2d 4f3d f6ca 503d fe7b e73c 78cf 013d

fc1.weight f4 [2, 392]
-0.01018823 -0.034584254 0.032712728 -0.04253475 0.040336546 0.042957615 0.04153401 0.01828402
-0.021431703 -0.043775216 0.0028895277 0.0101350285 -0.0012658264 0.048727073 0.011144704 -0.018308675
-0.029981732 -0.019979358 -0.0015374087 -0.044995423 0.00062153355 0.029490601 -0.028372012 0.022417434
-0.019984536 0.015379554 0.02598985 -0.025742242 0.0006922018 -0.03071534 0.01511368 -0.003055809
0.008884177 0.019033842 0.01484875 0.049042236 -0.019482711 0.023143401 -0.030517852 0.02752751
0.0146254925 0.038617786 -0.033637404 -0.0066243047 0.018743848 0.024460532 -0.018557673 -0.00067006866
-0.0390255 0.014582605 0.020431323 -0.0064325123 -0.01932548 -0.008248951 -0.032517046 0.022682795
-0.0368858 0.025551056 -0.047267355 0.005002301 -0.03527994 -0.049164467 -0.031358358 0.03842795
-0.043522924 -0.021172993 -0.009091359 -0.013873647 -0.008214553 -0.031128742 0.01988026 -0.033286106
-0.038620133 -0.041288268 0.008746561 0.02822884 0.015120862 0.0054960274 0.016203018 -0.028163807
0.014927456 0.035010934 0.020581054 0.030916441 -0.005620427 0.016428698 -0.0120867705 -0.017380029
-0.022134375 -0.020146206 0.026800146 -0.016586218 0.023569053 0.03758502 -0.046304297 -0.04708757
0.045398604 0.015179928 0.021105371 0.041632593 -0.011212302 -0.019099915 0.03018571 -0.038177412
0.0023906957 0.046832707 -0.0018196661 0.029392116 0.02304182 0.0071827983 -0.049128097 0.006758783
-0.011030667 0.049980786 0.026080182 0.03559159 0.0071441014 0.026630023 0.05018192 0.035469275
0.03219131 -0.03706369 -0.0028512464 -0.007974966 -0.041996524 0.04665606 -0.0055031623 -0.0450928
0.005273215 -0.011349556 0.011717239 0.00080291554 0.0023621141 0.016947921 0.03277876 0.029422667
0.030832846 0.0061877714 0.0070070643 0.006626436 -0.016448392 0.02634685 0.047039382 -0.04543028
0.04073859 -0.043926764 -0.041954923 -0.029091416 -0.04037588 0.014338291 -0.050088722 0.005707743
-0.024288591 0.024993768 -0.026893422 -0.03883394 0.04189384 -0.049678925 -0.02387533 0.048954118
0.041213524 0.018214038 -0.028132353 -0.042259213 0.008949732 0.03365625 -0.020299608 -0.019118508
0.035362523 0.049285073 -0.0038060893 -0.021543404 0.012050639 0.0043922374 -0.0396563 0.012561374
-0.0052022818 -0.048030224 0.037582923 -0.0016271935 -0.008636606 -0.003004384 -0.04226873 0.018124584
0.039678965 -0.026846586 0.026187522 0.042483915 0.025132285 0.00043597302 -0.03068497 0.0058976565
0.009452702 -0.048375968 0.0038110565 -0.02039867 0.007817343 -0.029483931 -0.050163187 -0.019554958
-0.027288225 0.039509967 -0.0046660714 -0.015826438 0.008561344 -0.033995166 0.031826057 0.043896694
0.00502326 0.04369326 -0.046154223 -0.0006130199 -0.028332612 0.028363293 -0.027141113 -0.008420145
-0.022805942 -0.034179777 0.036532972 -0.032896165 -0.021896895 0.037310388 -0.00573208 0.0021741814
0.025116794 -0.02392561 -0.018754696 -0.009045406 0.032167334 -0.026289066 -0.033781137 -0.034511134
0.022894807 -0.013047189 -0.049525306 0.04387679 0.04294854 -0.02943227 -9.179584e-05 -0.048213508
0.007886344 -0.0069956724 -0.0041330885 0.01543172 0.033136558 0.036336772 0.017299602 -0.028647635
-0.044736717 -0.041393276 0.03965829 0.029787231 0.045114253 -0.0092724515 0.02445309 -0.030124972
00000000: 89ec 26bc 38a8 0dbd c8fd 053d eb38 2ebd
00000010: ef37 253d 53f4 2f3d 911f 2a3d 5ec8 953c
00000020: 8a91 afbc a44d 33bd 3b5e 3d3b 640d 263c
00000030: 16ea a5ba 0a96 473d 4798 363c 13fc 95bc
00000040: 409c f5bc c0ab a3bc e082 c9ba 1f4d 38bd
00000050: 69ee 223a 4696 f13c 6c6c e8bc c4a4 b73c
00000060: 9cb6 a3bc 86fa 7b3c aae8 d43c 65e1 d2bc
00000070: e074 353a bd9e fbbc 5e9f 773c f843 48bb
00000080: f08e 113c dcec 9b3c 2c48 733c 83e0 483d
00000090: 359a 9fbc 3b97 bd3c 9300 fabc 5f81 e13c
000000a0: c39f 6f3c af2d 1e3d 60c7 09bd b210 d9bb
000000b0: b38c 993c 7461 c83c 4306 98bc 8ca7 2fba
000000c0: 34d9 1fbd e1eb 6e3c 975f a73c d3c7 d2bb
000000d0: 7850 9ebc 9c26 07bc 9830 05bd 45d1 b93c
000000e0: 9115 17bd 7350 d13c 6a9b 41bd 58ea a33b
000000f0: b381 10bd ae60 49bd 9f71 00bd a066 1d3d
00000100: 1845 32bd fc72 adbc ecf3 14bc 4b4e 63bc
00000110: 5596 06bc b401 ffbc eddb a23c 0357 08bd
00000120: 2530 1ebd e31d 29bd bc4d 0f3c 2b40 e73c
00000130: 7ebd 773c 0518 b43b 31bc 843c c9b7 e6bc
00000140: 4a92 743c a067 0f3d 9999 a83c 7a44 fd3c
00000150: 8f2b b8bb 7a95 863c 9707 46bc 9060 8ebc
00000160: 2653 b5bc a809 a5bc fb8b db3c d2df 87bc
00000170: e313 c13c c0f2 193d 93a9 3dbd e5de 40bd
00000180: e3f3 393d 3cb5 783c 2ce5 ac3c f086 2a3d
00000190: ceb3 37bc 6d77 9cbc 0648 f73c eb5f 1cbd
000001a0: 38ad 1c3b a7d3 3f3d dd81 eeba bcc7 f03c
000001b0: 33c2 bc3c ae5d eb3b 8b3a 49bd c878 dd3b
000001c0: f9b9 34bc a7b8 4c3d 1ba6 d53c 7dc8 113d
000001d0: 1119 ea3b 3527 da3c 8f8b 4d3d 3b48 113d
000001e0: 09db 033d 19d0 17bd fadb 3abb 6fa9 02bc
000001f0: 8c04 2cbd 6d1a 3f3d df53 b4bb 3ab3 38bd
00000200: efca ac3b 7df3 39bc aaf9 3f3c c07a 523a
00000210: b3cd 1a3b 5ed6 8a3c 0543 063d ce07 f13c
00000220: 2a95 fc3c cac2 ca3b 849b e53b 9322 d93b
00000230: c7be 86bc 59d5 d73c 5eac 403d 1a15 3abd
00000240: 82dd 263d 8dec 33bd edd8 2bbd 1f51 eebc
00000250: 2e61 25bd 27eb 6a3c d529 4dbd 0508 bb3b
00000260: def8 c6bc bbbf cc3c 984f dcbc 5610 1fbd
00000270: e098 2b3d 217c 4bbd 3296 c3bc 1d84 483d
00000280: 83cf 283d 9b35 953c d275 e6bc ff17 2dbd
00000290: e6a1 123c 23db 093d 5d4b a6bc 6b9e 9cbc
000002a0: 4bd8 103d 25df 493d 956f 79bb cb7b b0bc
000002b0: 0b70 453c c2ec 8f3b a56e 22bd 39ce 4d3c
000002c0: e777 aabb 57bb 44bd 8df0 193d 8e47 d5ba
000002d0: 8d80 0dbc 33e5 44bb fa21 2dbd 027a 943c
000002e0: 6986 223d 5fed dbbc 3787 d63c 9d03 2e3d
000002f0: 39e2 cd3c 4f93 e439 0c5f fbbc 2141 c13b
00000300: 81df 1a3c e125 46bd ebc2 793b 1d1b a7bc
00000310: 5014 003c 4988 f1bc ea77 4dbd b831 a0bc
00000320: 8e8b dfbc 34d5 213d d8e5 98bb 72a6 81bc
00000330: e144 0c3c 843e 0bbd 0a5c 023d 05cd 333d
00000340: 299a a43b b4f7 323d 360c 3dbd 12b3 20ba
00000350: cb19 e8bc 235a e83c 0a57 debc a6f4 09bc
00000360: 87d3 babc 1800 0cbd 99a3 153d 21be 06bd
00000370: 1e61 b3bc c7d2 183d 2cd4 bbbb b67c 0e3b
00000380: bcc1 cd3c a4ff c3bc 73a3 99bc 2f33 14bc
00000390: e5c1 033d 2b5c d7bc 175e 0abd 8c5b 0dbd
000003a0: e48d bb3c e1c3 55bc 0cdb 4abd 26b8 333d
000003b0: cfea 2f3d f21b f1bc 8482 c0b8 877b 45bd
000003c0: b935 013c f43b e5bb dc6e 87bb 53d5 7c3c
000003d0: 33ba 073d ded5 143d e5b7 8d3c 72ae eabc
000003e0: d93d 37bd ff8b 29bd bb70 223d 5a04 f43c
000003f0: b9c9 383d 7beb 17bc d951 c83c a5c8 f6bc

fc1.bias f4 [2]
-0.03391931 -0.039903205
00000000: f9ee 0abd 8b71 23bd
