ml/models/cnn15_best.pth (torch, 20258 bytes, 8 tensors)

conv1.weight f4 [8, 1, 3, 3]
000000 47 d6 2d be 0a 54 9c 3e b4 1f 12 3e 7f aa 88 be
       -0.16976272 0.30532867 0.14269906 -0.26692578
000010 e6 36 78 3d f1 57 22 3d 3f 87 86 bd b7 30 48 3e
       0.06059923 0.03963465 -0.06568765 0.19549833
000020 f1 a8 09 3e 43 68 65 3e 24 27 a6 bd 65 a7 3f 3d
       0.13443352 0.22403054 -0.08112934 0.0467905
000030 ae 25 75 bd c0 47 b3 bd 67 d1 35 be 04 ad 85 3e
       -0.059850387 -0.087539196 -0.17755662 0.26108563
000040 a7 45 2c be a4 bc 92 3e de 44 74 3e 70 a0 90 be
       -0.16823445 0.28659546 0.23854396 -0.28247404
000050 79 56 cc bd 73 ad 23 be 2b 4e 99 3e 23 cf 1a 3e
       -0.09977431 -0.15984134 0.2994245 0.15118079
000060 e2 31 80 be f8 c6 7d 3d 54 2f 46 bd d0 5d 77 3e
       -0.25038058 0.06195733 -0.04838498 0.2415688
000070 fd e4 e7 3d 04 f7 1f 3d ac 6a 53 3e f4 b3 b9 bc
       0.11322973 0.03905393 0.20646161 -0.022668816
000080 96 aa 4d bd 94 8e 7d 3d 3e 9a 85 bc f9 40 5c 3d
       -0.05021151 0.06190355 -0.0163089 0.0537729
000090 7f 85 74 3e 5e 0f 8f 3e 1a f2 01 bc e9 d9 90 3e
       0.2387905 0.27941412 -0.007931257 0.28291252
0000a0 d0 47 1c bc c7 40 15 3e 00 e7 9b bd 18 26 12 be
       -0.009538606 0.14575492 -0.07612419 -0.14272344
0000b0 ca e5 86 be e1 98 76 3e b6 ec e9 bd 78 c8 d7 3c
       -0.2634719 0.24081756 -0.11422102 0.026340708
0000c0 f0 50 36 be ee 09 55 3e 2c 9f ee bd 15 8c 55 be
       -0.17804313 0.20804569 -0.116514534 -0.20854218
0000d0 9a d7 7e be e6 d7 9b be 5e 2f cc 3c 99 5f e7 3d
       -0.24886933 -0.30438155 0.02492493 0.11297531
0000e0 83 6d ab 3d 70 4c 96 be 79 fc 86 3e 70 8c 1c be
       0.08370497 -0.29355192 0.26364496 -0.15287948
0000f0 4e 00 74 be ea 31 86 3e 28 5c e6 3d 96 ad 8b 3e
       -0.23828241 0.26209956 0.11248046 0.27280873
000100 50 65 7f be 63 75 68 3e 2e a8 cb bd 31 d8 89 bd
       -0.24940991 0.2270103 -0.09944187 -0.06730688
000110 f1 de 84 bc 69 e7 80 3e 2d b9 0b 3e c1 24 2e be
       -0.016219588 0.25176552 0.13644858 -0.17006208

conv1.bias f4 [8]
000000 d6 ed ea 3c 11 94 9b be 3c 30 b8 3e 7b 06 1f be
       0.028677862 -0.30386403 0.359743 -0.15529816
000010 d4 b1 3e be ae cc 83 ba b3 f4 a0 3e 0d 26 ac bb
       -0.18622524 -0.0010055506 0.3143669 -0.0052535594

bn1.weight f4 [8]
000000 07 95 c3 3f 73 d5 a3 3f 61 b6 bd 3e 27 a7 ab 3e
       1.5279855 1.2799515 0.37053207 0.33525965
000010 9d fa a0 3e 5f 0a e4 3e c6 ca c9 3f 6c a8 5f 3f
       0.31441203 0.44539163 1.5765007 0.87366366

bn1.bias f4 [8]
000000 a9 c7 13 3f ee d3 00 3f 1f 1e 39 bf 39 62 0e bf
       0.5772653 0.5032338 -0.72311586 -0.55618626
000010 47 8d 18 bf a3 e8 03 bf c5 fe 11 3f 8e 7e 56 3e
       -0.5959057 -0.5152685 0.5702937 0.20946714

bn1.running_mean f4 [8]
000000 f4 c7 09 3e b2 62 92 be 0f d8 a8 3e f8 fb 30 3e
       0.13455182 -0.28590924 0.3297734 0.17283618
000010 fd 31 83 3c 48 64 a6 be 91 8c f2 3e e7 b4 ab 3d
       0.016015047 -0.32498384 0.4737287 0.08384114

bn1.running_var f4 [8]
000000 e8 30 8d 3c 41 1c 15 3c 40 ca bc 3b db 61 ae 3c
       0.017235234 0.009100975 0.0057614148 0.021286895
000010 a6 28 dd 3c 6a 8b f0 3c 37 4b 82 3c 99 e9 12 3c
       0.026996922 0.029363353 0.015905006 0.008966827

fc1.weight f4 [2, 392]
000000 2f 64 90 bc 31 01 d7 bc 5d 54 ad bb d6 d2 52 3c
       -0.017625896 -0.026245685 -0.005289598 0.01286765
000010 7b 95 13 bd 05 65 34 3c e8 21 13 3d aa 67 db bc
       -0.036031228 0.011010413 0.035921007 -0.02678283
000020 49 e2 61 3b 9c 6a ce 3c c4 b3 8c 3c 2e 5e 8d bb
       0.0034467152 0.02519732 0.017175563 -0.0043142056
000030 41 37 c2 3b a2 c9 a0 bc b2 65 86 bc fe b5 2c 3d
       0.005926997 -0.019627396 -0.016405914 0.04216575
000040 7d 19 3d bc 7a 46 95 39 b4 c4 a9 3b b0 68 00 bc
       -0.011541721 0.00028472004 0.0051809195 -0.007837459
000050 e9 19 f2 3a 7d 65 14 bd 9a e2 15 3d 61 b6 ac 3b
       0.0018470857 -0.0362296 0.036593057 0.0052707647
000060 a2 04 ed ba 39 fc 30 3c 59 43 01 3d cd dd d5 bc
       -0.0018083046 0.010802322 0.03155837 -0.02610674
000070 a3 6b 4b 3c f1 eb 2b bc a1 29 3d bc 72 05 6b bc
       0.012415799 -0.0104932645 -0.01154557 -0.01434456
000080 ef 15 97 3a 5c ab 8b 39 2b 0b 12 3d cd ee 44 3d
       0.0011526922 0.0002663982 0.03565518 0.0480793
000090 f1 ec 24 3d 5d fb 0b 3b 62 d5 23 3c c5 a3 4e 3d
       0.040265027 0.002135954 0.009999605 0.05044915
0000a0 94 62 c1 bc a8 36 14 3d 9d bc 32 bd de b8 d5 3c
       -0.023606576 0.036184937 -0.043636907 0.026089128
0000b0 07 9b 8d 3c b8 51 4b bd fc 06 1f 3d b2 96 e3 bc
       0.017285837 -0.04963848 0.03882502 -0.027781818
0000c0 a3 d5 6b 3c 85 ed 04 3d 15 06 d0 bc ea 5f 59 bc
       0.014394197 0.03245308 -0.025393525 -0.013267497
0000d0 61 c4 ad 3c 1b 0b 87 3c 2e 81 45 3d 5c 1c aa bc
       0.021211805 0.016484788 0.0482189 -0.020765476
0000e0 94 36 c6 3c c0 99 c5 3c b4 ca 45 bd 59 77 31 bd
       0.024195947 0.024121165 -0.048289016 -0.04332671
0000f0 c1 09 3e bb 10 bc e6 39 4b a2 4e 3d 61 19 73 bc
       -0.0028997513 0.00044009136 0.050447743 -0.014837594
000100 52 a2 34 bd 1c c9 b4 bc c8 2e 6c 3b 9f 33 04 bc
       -0.044100113 -0.022068553 0.0036038626 -0.008068948
000110 01 50 c8 3c 73 85 0e 3c c8 ba c0 3b 8e d3 96 bc
       0.024452211 0.008698809 0.005881641 -0.018411424
000120 b8 e3 05 3d 19 b7 4c bd ba f5 26 3c ff ef 39 3d
       0.032687873 -0.049979303 0.010190422 0.045394894
000130 e7 24 ca 3b b8 08 4b 3d 13 33 a4 3c 2c 4f cc 3b
       0.00616895 0.04956886 0.020043885 0.006235024
000140 95 0c a6 3b 8a 98 1a bd a2 95 ba 3c bb 9b 01 3d
       0.005067418 -0.03774313 0.022776429 0.031642657
000150 08 9f 49 3c ef 26 45 3c ca cc 21 bd 8f 42 01 3d
       0.012305982 0.012033208 -0.039501943 0.031557616
000160 d6 1d 03 bd e3 c9 c9 bc a6 ae 09 ba 86 a0 98 3c
       -0.032010876 -0.0246324 -0.000525216 0.018631231
000170 c8 26 a7 3c 4c fa 3c bd d7 44 3a bd 5b 67 5e bc
       0.020404235 -0.04613714 -0.045475807 -0.013574447
000180 c1 ba 26 3d e9 3e df 3c e3 d1 f1 bb 02 81 35 3d
       0.040705446 0.027251678 -0.007379757 0.044312485
000190 1b 45 55 3c 1a d9 50 3c 33 10 23 bc 1b a6 4c bd
       0.013016964 0.012747074 -0.009952593 -0.049963098
0001a0 9b f1 b4 bc bc cc d2 3c e4 20 43 bd cd fe 95 3c
       -0.022087863 0.02573239 -0.04763879 0.018309975
0001b0 30 e8 b3 3b 76 75 a1 3c b9 2f 21 3c 8b 72 30 3d
       0.0054903254 0.01970933 0.009838038 0.043077987
0001c0 78 cc cc 3c d7 90 fa bb 0a 39 39 bc 60 6b 19 3d
       0.024999842 -0.007646661 -0.011305103 0.037455916
0001d0 85 48 13 bd b8 48 13 3d ca 21 d3 3c 09 95 98 bb
       -0.035957832 0.035958022 0.025772948 -0.0046564383
0001e0 ee 4b c6 3c f5 c6 16 bd be c0 9b 39 e3 b6 30 bd
       0.024206128 -0.036810834 0.00029707508 -0.043143164
0001f0 03 39 c0 bc 29 8b 2a 3d de 64 cc 3c 41 d0 54 bb
       -0.023464685 0.04163662 0.024950441 -0.0032472762
000200 ff 39 b4 bc 91 ca 3c bd e6 af 11 3d 75 56 32 3d
       -0.022000311 -0.04609162 0.03556814 0.043539483
000210 e2 5a e8 bc 6e b5 c4 bc 69 5e 0e 3d 10 5d 2b 3d
       -0.028363649 -0.024012294 0.034758005 0.0418368
000220 0d 3f 20 bd 36 8d f6 3c ca 54 15 bd c9 96 69 bc
       -0.03912263 0.030096631 -0.036457814 -0.014257141
000230 80 ff 4a bd 39 6e 52 3c b5 31 23 3d 05 43 99 bc
       -0.04956007 0.012843662 0.039842326 -0.018708715
000240 d5 b9 ba 3b bc f8 28 3d ae 7f ff 3c 66 7f 5c 3c
       0.0056984224 0.041252837 0.031188812 0.0134581085
000250 44 ee 41 3d cb ad 10 3d 0f 96 10 3c 06 c4 03 bc
       0.04734637 0.035321992 0.008824839 -0.008042341
000260 6c 48 74 bc 1a 7e e2 bb 90 c8 2b 3c 65 1e ae bb
       -0.014909845 -0.006912005 0.01048483 -0.005313682
000270 08 78 41 3d 12 24 c4 3c 21 60 cd bc 68 94 3b bd
       0.04723361 0.02394298 -0.025070252 -0.045795828
000280 36 c2 e1 3c c5 18 e1 bc d9 11 d0 3c 56 a8 fb 3c
       0.027558427 -0.027477631 0.025399135 0.030719917
000290 f0 c4 0a 3d c9 aa 35 bd a6 f8 2c 3d 73 f3 06 3d
       0.03387922 -0.044352327 0.042229317 0.032947015
0002a0 24 8e 00 bd e8 77 96 3c 7d 61 4a 3c 56 03 fd bb
       -0.031385556 0.018367723 0.012352345 -0.007721345
0002b0 c5 0b 16 bd c5 91 24 bd 12 22 24 3d 16 94 a4 bc
       -0.036632318 -0.04017808 0.040071554 -0.020090144
0002c0 8f 02 e8 bc 61 d4 b2 bc d4 f2 a3 ba 78 fa d9 bc
       -0.028321533 -0.021829786 -0.0012508282 -0.02660869
0002d0 2d 8f 24 3d 92 da 48 3d f2 8f 1d bd 92 f5 f0 b9
       0.040175606 0.04903657 -0.038467355 -0.0004595933
0002e0 c2 48 c1 3c 45 24 f0 3c 81 d9 47 3d 6f 11 35 3d
       0.023594264 0.02931417 0.048791412 0.04420608
0002f0 62 57 26 3b ec d2 4a bd 26 5c 12 bc ce f0 ed 3a
       0.0025381674 -0.049517557 -0.008933103 0.001815343
000300 1d ba a0 bc 5b 33 23 3c 31 3b 86 3c f7 46 fc bc
       -0.019619996 0.009960975 0.016385647 -0.030795557
000310 90 0c 2d 3d e0 11 e1 3c 60 e4 42 bd 95 7d 5c 3c
       0.04224831 0.027474344 -0.047581077 0.013457675
000320 fa 9c a3 bc d9 32 8b bb e1 b0 c7 3c ec 07 ac 3b
       -0.019972313 -0.004248005 0.024376335 0.005249968
000330 05 08 04 3d 7b 78 3d 3d 78 18 ff bc 06 af 8a bb
       0.03223421 0.046257477 -0.031139597 -0.00423229
000340 4e d8 6f 3b 2e 97 1b 3d 5e 30 08 bd 4a 97 27 bd
       0.0036597433 0.037985973 -0.03324925 -0.040915765
000350 43 b6 9a 3c 9e c4 2d 3d b3 81 f4 bb b9 43 45 bc
       0.018885737 0.042423837 -0.0074617504 -0.012040072
000360 7b d3 1a 3c ba 49 21 3d 36 34 2f 3c 29 df 2a bd
       0.009449835 0.03937695 0.0106936 -0.04171673
000370 a6 26 6c bc 6e 19 3c 3d 67 51 79 3c 2c 63 3b 3d
       -0.014413511 0.04592269 0.015217162 0.045748875
000380 11 f4 df 3c 92 94 1c bc 6c e3 0b bb c9 10 43 3d
       0.02733806 -0.009556906 -0.002134527 0.04762343
000390 e3 58 51 3c 30 db e7 3c 47 c3 46 3d b7 a5 d4 3c
       0.01277754 0.028302759 0.048526075 0.025957925
0003a0 0e 5b 44 3d 32 23 2a bd 3c e3 c8 3c 8b b3 11 bd
       0.0479384 -0.04153747 0.024522416 -0.035571616
0003b0 d6 da 0e 3d 5f 92 da 3a a3 37 65 bc c2 68 b9 bc
       0.034876667 0.0016675702 -0.013990316 -0.02263296
0003c0 77 b5 1f 3d 66 ca 1f 3d 99 cf 9e 3c eb 2c 46 3d
       0.038991418 0.03901138 0.0193861 0.04838268
0003d0 36 2e 21 bd 4c cb 83 bc 61 fb 64 3c 2d 36 01 3d
       -0.03935071 -0.01608815 0.013975949 0.031545807
0003e0 3d ff 86 bc 3c 33 b2 3c 5c 3e b2 bb ca bd 94 bc
       -0.016479129 0.021752946 -0.0054395627 -0.018156905
0003f0 5b 3c b0 3c 45 60 1d bd 51 21 ca bc b2 f5 0b bd
       0.021513155 -0.038421888 -0.02467409 -0.03416986

fc1.bias f4 [2]
000000 35 5f 4d bb 5d 01 e5 bc
       -0.0031337265 -0.027954752
