ml/models/resnet24_best.pth (torch, 411870 bytes, 56 tensors)

stem.0.weight f4 [16, 3, 3, 3]
000000 59 f6 da bd f9 ee 85 bd 72 db c2 3c db 45 ec 3d
       -0.10691518 -0.06539721 0.02378628 0.115367614
000010 43 b0 1e 3e a1 9c 03 3d ec 2e 5b be 98 9b 01 be
       0.15496926 0.032131795 -0.21404618 -0.1265701
000020 96 34 a3 3d 25 11 02 be 0d f3 37 3e e7 c2 5a 3e
       0.07969014 -0.12701853 0.1796381 0.21363412
000030 de db 34 bb b1 3b 18 3e 92 80 34 3e bc 0f 5c be
       -0.0027596871 0.1486652 0.1762717 -0.21490377
000040 5b 56 b5 3d f6 de d8 3d 94 f0 fe bc 08 aa 3a 3e
       0.088543616 0.105894014 -0.031120576 0.18228924
000050 1e 4b f9 3d 8b 6d 22 3d 6e f5 23 3c 6e 17 54 bc
       0.121725306 0.03965525 0.0100072455 -0.012945039
000060 f0 d3 08 be 1a c8 3f be 18 07 52 be c9 8c ac bd
       -0.13362098 -0.18728676 -0.20510519 -0.0842529
000070 2c ef d1 3d f9 cc 1b bb b2 8c ce bd 2a 41 06 3e
       0.102506965 -0.0023773296 -0.10085429 0.13110796
000080 23 68 f9 bd 32 60 f2 3d bd 6e 94 3d 62 5e 3c be
       -0.12178066 0.11834754 0.07247684 -0.18395379
000090 8d 3c bc 3d 46 8d 07 be 50 82 12 3d b7 af 11 bb
       0.09191237 -0.13237485 0.035768807 -0.0022229978
0000a0 77 a9 4b 3e ca 6b 42 bd 0e db 43 3e e5 9f 06 3e
       0.19888864 -0.047466077 0.19126531 0.13146932
0000b0 b2 9f 5b be 70 ba 5a bd 27 de 26 3d 6b 18 56 bc
       -0.21447638 -0.053400457 0.040739205 -0.013067345
0000c0 17 c5 4c 3e 89 7a 10 bb ea 42 56 be 50 f3 ee 3d
       0.19997059 -0.0022045693 -0.20923963 0.11667502
0000d0 7e de 03 3d 33 a7 59 be c1 94 0a be dd 78 ed 3d
       0.032194607 -0.21255188 -0.13533308 0.115953185
0000e0 07 bc 83 bd 69 78 1e be e3 98 e9 3d 3e e6 5d 3e
       -0.06432348 -0.1547562 0.11406114 0.21669862
0000f0 e8 18 c6 bd ae 12 4f 3e e9 21 84 bd 12 fd 30 3c
       -0.09672719 0.2022197 -0.0645178 0.010802524
000100 66 ac 0f 3e 0b 97 05 3d 89 1c df 3d a4 1c 26 be
       0.14030609 0.03261475 0.108941145 -0.16221863
000110 73 7f 60 be de 96 23 3e 45 38 1b be fd 55 5c be
       -0.21923618 0.1597552 -0.15158184 -0.21517177
000120 95 28 e6 3c c2 94 22 be 17 81 bf 3d 18 1c 30 3d
       0.028095523 -0.15877059 0.09350794 0.042995542
000130 47 62 15 be b5 b6 e3 3d 09 7c e0 3d 83 a2 f3 3c
       -0.14588271 0.11118833 0.10961158 0.029740578
000140 ff c8 2c 39 0b af 10 be cb 06 89 3c aa b3 eb 3c
       0.00016478075 -0.14129274 0.016726872 0.028772194
000150 96 fd 40 3d 06 4d e2 3d 5e 58 0d bc 1f a8 fe 3d
       0.04711684 0.11049847 -0.008627025 0.1243441
000160 f9 e4 aa 3d 21 dd 36 bd 50 2a 40 3e 4e cd 23 be
       0.08344454 -0.04464448 0.18766141 -0.15996286
000170 9b 41 21 3d cd 1c 01 3e 1a fd 34 be a5 6a f2 3d
       0.039369207 0.12608643 -0.17674676 0.11836747
000180 f1 d7 22 3e 93 b1 35 3e 98 e9 0f 3e 2e 5b 46 3e
       0.15902688 0.1774352 0.14053953 0.1937072
000190 de f3 56 3e 16 bf 2c 3d 50 f6 96 bd 75 d5 56 3e
       0.20991465 0.04217442 -0.07371199 0.20979865
0001a0 40 4c bb 3d 16 da 73 3c f2 6a 0e 3c a8 bb 85 3d
       0.09145403 0.014883539 0.00869249 0.06529933
0001b0 53 b6 82 bd 0c 08 01 3e cf 54 2f bd 99 e7 8b bc
       -0.06382432 0.12600726 -0.04280549 -0.017078208
0001c0 3b 92 91 3c 99 ed 9b bc 96 90 46 be 54 61 06 bc
       0.017769923 -0.019034194 -0.19391093 -0.008201916
0001d0 13 90 00 bd 74 ec 9f bd ae 20 de 3d ef 11 1d 3d
       -0.0313874 -0.07808772 0.10846077 0.03834718
0001e0 8f 9d 2b 3e 01 2d 5a 3e 80 06 5f 3e 25 30 7b bd
       0.16759323 0.2130623 0.21779823 -0.06132521
0001f0 b0 0d 5d 3e 73 ce 2b bd d2 d1 42 be b1 81 47 be
       0.21587253 -0.041944932 -0.19025353 -0.19483067
000200 bc db b6 bd 75 cb 1f bd 00 b9 20 bd d8 96 11 bd
       -0.0892863 -0.03901239 -0.03923893 -0.035544246
000210 bb ca 57 be df 81 3a bd eb 18 54 be bf c2 19 3d
       -0.2107343 -0.04553401 -0.2071263 0.03753924
000220 23 74 1e bd 19 7a 0d 3d 71 f7 09 be dd 97 5f bc
       -0.038684975 0.03454027 -0.13473298 -0.013647047
000230 58 5a 53 3e bc d6 3c 3e 86 48 5f be 71 4d e1 bd
       0.20639932 0.1844129 -0.21805009 -0.11001099
000240 ad 84 29 bd 25 9c d7 3d 31 00 a3 3d c1 2d eb 3d
       -0.041386295 0.10527829 0.07959021 0.11483336
000250 95 33 ed bd 4d fc a8 39 5f d4 d9 bc 74 bd 2c bd
       -0.11582104 0.00032231436 -0.026590524 -0.042172864
000260 1e 11 1a 3d 57 ce 0d be 47 57 1a bd 30 ed 60 3e
       0.03761398 -0.13848244 -0.03768089 0.2196548
000270 2d 76 1c bd 32 9c 4f be 8e 94 33 3e 51 96 93 bd
       -0.03819864 -0.20274428 0.17537138 -0.07206405
000280 d9 26 2b be 2c a5 43 3e 9d 15 5b be c0 86 2a 3d
       -0.16714038 0.19105977 -0.21394964 0.041632414
000290 a0 63 45 be 61 e9 98 3b a3 e2 a2 3c 25 93 e9 bd
       -0.19276285 0.004666493 0.01988346 -0.11405019
0002a0 15 90 2d 3d ba b2 1c be 2f 75 50 be 7f 7e 8e bc
       0.042373735 -0.15302554 -0.20357202 -0.017394302
0002b0 dc 3e 41 3e 9f a9 b6 3c 6a 88 8c 3d cf 88 50 3e
       0.18871635 0.022297679 0.068619564 0.20364688
0002c0 6d ad 94 3d aa 20 53 3d 9b 56 b7 3c 44 c5 b9 bd
       0.07259641 0.051544823 0.022380164 -0.090708286
0002d0 c9 8e a9 ba 9d fd e2 3d 0a 9d 32 be 9b 28 29 be
       -0.001293623 0.11083529 -0.17442718 -0.16519396
0002e0 98 b3 4f 3d 16 21 ad bd db 19 2e 3d c3 9a 53 3e
       0.050708383 -0.08453576 0.042505126 0.20664506
0002f0 2a 78 ee bc fa 64 d1 bd f7 e2 60 3e 56 12 9f 3d
       -0.029110033 -0.10224338 0.2196158 0.07767169
000300 a1 ed 44 be ea 88 52 3e e2 c8 de 3d 20 1d 82 3d
       -0.19231273 0.20560041 0.10878159 0.063532114
000310 48 0c eb 3d ce 3d 2e 3d 47 fa e5 bd 8d 19 0a bd
       0.11476952 0.04253941 -0.11229377 -0.033715773
000320 d4 1a b1 3d a4 cf 41 3e 39 21 26 3e 14 93 ad bd
       0.08647695 0.18926865 0.16223611 -0.084753186
000330 60 10 45 3e 89 bf d6 bd 7b 68 45 bc 27 a2 0d be
       0.19244528 -0.10485751 -0.012048836 -0.13831387
000340 7b bc 4e 3e 64 89 ec 3d a5 0c 69 bd e6 ea ed 3d
       0.20189087 0.11549643 -0.056896824 0.11617069
000350 27 01 5e bd 7e 01 11 3e 8e 6e 78 bd 83 49 ee bd
       -0.054200318 0.14160725 -0.06065231 -0.11635115
000360 a7 77 65 3d 52 9b 18 bd 95 5e 11 3e 9c 4f 5b 3e
       0.056022312 -0.0372575 0.14196236 0.21417087
000370 82 ed 92 3d 66 38 39 bd 6f 22 5f 3e b2 86 58 3d
       0.07174207 -0.0452198 0.21790479 0.05286283
000380 75 1f 05 be 39 1a f1 bd de f8 d9 bd a2 89 f3 bd
       -0.13000281 -0.1177258 -0.10643171 -0.11891486
000390 2a ce 1d be 87 45 14 3d 57 2e 5c be 09 72 3d be
       -0.15410677 0.03619912 -0.21502052 -0.18500532
0003a0 2c a2 23 bd e2 89 06 be 49 17 1e bd db e1 3d 3e
       -0.03994958 -0.13138536 -0.038596425 0.18543188
0003b0 4e b9 b1 bd 15 81 45 3d 7c ea df bd 82 df 54 3e
       -0.08677922 0.048218805 -0.10933396 0.20788386
0003c0 a5 a6 20 bd 33 b5 56 bd 52 44 63 3e 8a 3b d0 bc
       -0.039221425 -0.0524189 0.22194031 -0.025419015
0003d0 0d 04 d6 3c 18 78 04 be f9 c3 99 3d c1 0a 24 bd
       0.026124978 -0.12936437 0.07508082 -0.04004932
0003e0 e2 54 28 3e ec c3 17 3d 63 92 38 bd ad a6 9d 3d
       0.1643863 0.03705208 -0.04506148 0.076978065
0003f0 57 4d d4 bd 4f f8 fd 3d 7b 4a 5d be 7d 60 a9 bc
       -0.10366314 0.12400877 -0.21610443 -0.020675892

stem.0.bias f4 [16]
000000 ea d8 3a 3e be ec 47 3d 27 26 7e bc 6e c2 1a be
       0.18246809 0.04880976 -0.015512026 -0.15113232
000010 a6 4b 9b 3d 1c da e4 3d 3f 6d 2c be 6d f3 a3 bd
       0.07582788 0.111744136 -0.16838549 -0.08005414
000020 2f a6 fe 3d 77 ed 22 be 10 8d 30 3e 33 50 1a be
       0.12434041 -0.15910898 0.17241311 -0.15069656
000030 8d 34 e7 bd dd 7a 37 be 1a c8 8c 3d e3 ad 81 bd
       -0.1128932 -0.17917962 0.06874104 -0.063319944

stem.1.weight f4 [16]
000000 4b c4 8d 3f e8 69 b8 3f 77 19 85 3f 9f 1d 86 3f
       1.1075529 1.440732 1.0398396 1.047779
000010 45 55 92 3f 71 30 8e 3f dc a6 89 3f 7a 60 a0 3f
       1.1432272 1.1108533 1.0754046 1.2529442
000020 a9 60 89 3f ca 7d 72 3f 40 10 85 3f f7 a3 97 3f
       1.0732623 0.9472319 1.0395584 1.1846913
000030 b0 7a 7e 3f 3d bd 96 3f 59 70 9a 3f 27 89 a2 3f
       0.99405956 1.1776501 1.2065536 1.2698106

stem.1.bias f4 [16]
000000 12 60 cd 3d 96 b3 bf 3d 40 7d 80 be 7b 62 43 be
       0.100280896 0.09360425 -0.25095558 -0.19080536
000010 1c 58 27 bd 2e 18 e8 bd 36 cd 10 be a7 fa 24 be
       -0.040855512 -0.11332737 -0.14140782 -0.16111241
000020 89 2a 54 be ae 40 52 bd 2c d5 87 be 43 53 b0 bd
       -0.20719351 -0.051331215 -0.26529825 -0.08609631
000030 0e 9d e6 bd 6a 95 c2 bd b2 ee e7 3d 73 3a 33 be
       -0.112604246 -0.09501155 0.113248244 -0.17502765

stem.1.running_mean f4 [16]
000000 50 22 5f 3e 10 d7 b9 3d 2a 35 46 bd c0 9c 29 3f
       0.21790433 0.09074223 -0.048390545 0.66254807
000010 49 1a 1d be 65 4e 88 3d e4 86 80 be e9 7b fd 3e
       -0.15342058 0.066555776 -0.25102913 0.49508598
000020 24 2a a7 3d 7a 5e f4 be 26 c8 f1 3e f5 8c 2d be
       0.081623346 -0.4772833 0.47223014 -0.16948302
000030 9c 89 1d bf 10 ed 7e bd 1b 17 0e 3e 67 d9 04 bd
       -0.615381 -0.0622378 0.13876002 -0.032433894

stem.1.running_var f4 [16]
000000 7e 62 2d 3d 58 01 3e 3d 1b 27 ce 3b d6 b1 12 3e
       0.042330258 0.046388 0.006291283 0.14325652
000010 67 eb 12 3d 47 12 d8 3c 30 fc dc 3c 63 32 8d 3d
       0.03586903 0.026375903 0.026975721 0.06894376
000020 f4 4c 2a 3c 5c 6c 1e 3d 8a 23 00 3d 48 15 cd 3c
       0.010394324 0.03867756 0.031283893 0.025034562
000030 f3 5f 78 3d b3 0b 50 3c 9f 8f 09 3d 98 2e 1c 3d
       0.06063838 0.012698102 0.033584233 0.038130373

layer1.0.conv1.weight f4 [16, 16, 3, 3]
000000 e8 83 2e 3d 92 86 cd 3d 31 eb 94 bd a8 a0 80 3d
       0.042606264 0.10035433 -0.07271422 0.06280643
000010 02 03 52 3b c6 67 ea bd 30 fd dc 3d fe 2e 42 3d
       0.003204525 -0.114455745 0.10790479 0.047408096
000020 74 ce 8b 3c c0 3d a6 3d 5c 15 da 3c 01 6f b8 3c
       0.017066218 0.08117247 0.026621513 0.022513868
000030 58 3e e2 3d c5 2a d6 bb 02 93 93 3c 4d 61 8b 3c
       0.110470474 -0.0065358602 0.018014435 0.01701417
000040 d0 bc c5 3c 93 56 1b bc 0b fb 95 3c 68 aa 0a 3e
       0.024137884 -0.00948109 0.018308183 0.13541567
000050 61 9f 1c 3e 52 12 00 be c2 56 92 bd f2 91 1a 3c
       0.15295173 -0.12506989 -0.07145454 0.00943421
000060 9a aa 57 3b 61 81 da 3c 3f 07 1b 3d b1 fb 88 3c
       0.0032908083 0.02667302 0.037848707 0.016721578
000070 82 e9 86 bd bc 30 f2 bd d6 09 4a bd c8 b2 07 bd
       -0.06587507 -0.118257016 -0.049325787 -0.033129483
000080 5f 48 13 bd 68 4f 63 bd 59 bf c7 3d 14 2f dd 3d
       -0.03595769 -0.05549565 0.097532935 0.10799995
000090 e8 3d 29 3d 1e 19 28 3e 7d 83 0c 3e 7e 36 0d bc
       0.041318804 0.16415831 0.13722034 -0.008618949
0000a0 61 08 87 bd 0c 04 e5 bd 88 6a a5 bd 4b fb 89 3d
       -0.06593395 -0.111824125 -0.0807696 0.067373835
0000b0 9c 67 c7 bd 4f ad ec 3d c4 a6 41 bd 45 91 43 bd
       -0.09736559 0.115564935 -0.04727818 -0.04774596
0000c0 18 b8 27 3d 44 8b 7d bd 34 7f 13 be ff c9 b4 3d
       0.04094705 -0.061900392 -0.14403993 0.0882759
0000d0 4c b9 10 bd 52 61 64 3d c7 f1 4c 3d 52 72 05 3d
       -0.035332963 0.055756874 0.050035264 0.032579727
0000e0 8e f5 91 bd 80 24 b4 3d 0b b7 81 bc e1 b3 0b bd
       -0.07126914 0.08796024 -0.015834352 -0.034107093
0000f0 3e 57 b1 bc 5f 8f ba bd b3 63 38 be bb 53 16 be
       -0.021648046 -0.09109377 -0.18006782 -0.14680378
000100 7f 9f 4b bd 3b 59 79 3b 5a 51 49 bd 3e ad 17 3d
       -0.049712654 0.003804757 -0.04914985 0.03703045
000110 71 17 d3 bc 0b 22 b9 3c 62 7c d1 bb 03 52 42 3d
       -0.025768014 0.02259924 -0.0063930014 0.047441494
000120 46 03 d7 bd d4 15 ea 3b f5 15 50 bd c9 39 2d be
       -0.10498671 0.0071437154 -0.05080219 -0.16916575
000130 d4 eb 4e bd 94 3a ab bb 47 f4 40 be 9b 6c ef bd
       -0.050517872 -0.005225489 -0.18843184 -0.11690637
000140 ac 1a 05 be b6 ea df 3b 48 bd cd 3c 08 89 a5 3d
       -0.12998456 0.0068333996 0.02511467 0.08082777
000150 b2 1d 74 bc 86 c0 54 3b dd 60 91 3d 91 32 fa bc
       -0.014899658 0.0032463386 0.07098553 -0.03054169
000160 1f a3 c4 bd 25 69 f0 bd 11 3a ec 3d 0e e0 54 bd
       -0.096014254 -0.11738805 0.11534513 -0.051971488
000170 b6 0a 14 3d 60 3b fd bb 7f 4b da bd 73 bf 06 3d
       0.036143027 -0.0077280253 -0.10658931 0.032897424
000180 98 35 e3 bc af eb 42 be 6a 82 0f 3d ee 7d 69 3d
       -0.027735516 -0.19035219 0.035036482 0.05700486
000190 bd 92 f8 bc 3f 58 15 bd 97 7a 3b 3e 16 6a f6 3d
       -0.030343408 -0.03646111 0.18308483 0.12031953
0001a0 7b 7c 1a 3e 53 99 0d 3e 0c 07 9e 3b a1 7f 1f 3d
       0.15086548 0.1382802 0.0048226174 0.038940076
0001b0 6d b4 c9 3c c8 7b 98 bc ba 97 9c 3b 37 1b f6 bc
       0.024622167 -0.018613711 0.0047788294 -0.030042274
0001c0 be 96 26 3d 5f 54 45 bd a4 a1 39 3b 1c 9f 59 bd
       0.040671103 -0.048176166 0.0028325105 -0.053130254
0001d0 a2 52 2e be 17 0d 1e be 89 5e 03 bd 65 4a 3e bd
       -0.1702371 -0.15434681 -0.032072578 -0.046457667
0001e0 5f b1 31 be 32 b5 31 bd 09 6c e0 bb 81 3b 1d be
       -0.17352818 -0.043385692 -0.0068488163 -0.1535473
0001f0 2f ff 50 bd ec 81 24 3d 4b e1 a1 bc 9a a6 99 3d
       -0.051024612 0.040162966 -0.019760748 0.0750248
000200 85 2b 13 3e ed 73 2e bd ac 35 51 bd cd ba a5 3d
       0.1437207 -0.042591024 -0.051076576 0.0809227
000210 a4 a8 24 bd 12 5b 04 3d 62 fd ad 3c c6 2a 9c bc
       -0.04019989 0.032313414 0.021238986 -0.019063365
000220 97 72 4a bd 2e a8 0c 3d b9 59 54 bc fb f0 d6 3c
       -0.049425688 0.034340076 -0.012960845 0.026237955
000230 57 0c 6f bb 49 93 59 3d 28 48 9b bc ea 2a 47 3a
       -0.003647586 0.053118978 -0.018955305 0.0007597642
000240 1a e2 88 3d c5 15 d0 3d bd 87 07 3d 49 4d 1b 3b
       0.066837505 0.10160402 0.033088434 0.0023697189
000250 91 ee 46 bb dc ae cf bd 0e 7e 97 3d 29 d2 01 3e
       -0.00303546 -0.10140774 0.0739709 0.12677826
000260 8e 5d fb 3d b8 33 2e 3e 94 ec 94 3d b8 a1 f1 bc
       0.122737035 0.17011917 0.07271686 -0.029496059
000270 b8 f9 22 3e e4 3c 10 3e 4b 9c 7a 3c 0f 10 37 3e
       0.15915573 0.14085728 0.015296052 0.1787722
000280 ac 7c 8b 3d 12 5d de 3c ce ba b4 bd 8b 4a 07 3d
       0.06810889 0.027143989 -0.08824693 0.033030074
000290 25 6b 45 3c b2 62 fa bd b3 77 0e bd 43 47 1d 3d
       0.012049471 -0.12225856 -0.034782123 0.03839804
0002a0 22 cb 84 bd 2c 66 44 39 af d0 ac bd 0b 2e 77 3c
       -0.06484057 0.00018730079 -0.08438241 0.015086661
0002b0 0b 3f 9b 3b 23 9e 8c 3c b0 5d 8b bd 20 ef bf 3b
       0.00473774 0.01716525 -0.06804979 0.0058573633
0002c0 84 d7 54 bd 8a 87 87 3c 9a 3b 0e be 9c a3 32 3d
       -0.051963344 0.016544122 -0.13889924 0.04361306
0002d0 6b f9 21 3e 91 15 29 3e 13 c2 a9 3d 58 cb d1 3d
       0.15817802 0.16512133 0.0828897 0.10243863
0002e0 62 50 02 3e ea ef a6 bc 3d 48 95 3d b4 16 89 bb
       0.12725976 -0.020378072 0.07289169 -0.0041836146
0002f0 3d ef a6 3c 67 a6 23 bd 66 23 0a 3e b0 ea 4e 3d
       0.02037775 -0.039953616 0.13490066 0.050516784
000300 19 c2 bd 3b f2 20 a3 3d 1d 71 32 bd e6 a9 b3 3d
       0.0057909605 0.07965268 -0.043564904 0.0877264
000310 de d8 0c 3e 32 85 88 3d 1a a7 17 bd 79 6d 1a 3d
       0.13754603 0.0666603 -0.037024595 0.037702058
000320 5c 5e 1b be 9b 67 1d 3e dc 75 a0 3d e8 55 92 bd
       -0.15172714 0.15371554 0.0783498 -0.071452916
000330 9b 57 30 3e 25 64 03 3e ee fc 35 bd c1 2a e4 bc
       0.17220919 0.12831171 -0.044430666 -0.027852418
000340 a1 d7 a4 bd c3 d9 8b bc e8 44 09 bc b5 20 75 bd
       -0.080489404 -0.01707161 -0.008378245 -0.059845645
000350 9a 69 4e 3d fb fe 87 bd c8 db 85 bd 70 6f 6a 37
       0.05039368 -0.066404305 -0.065360606 1.3973433e-05
000360 82 13 7d bd 8d 13 a7 3c 1a 4b 22 bc a8 bb b9 bc
       -0.061786182 0.020395065 -0.009905601 -0.02267249
000370 f1 fb bc bd 2a 65 aa bd 4b be c7 bd b1 bd 44 be
       -0.092277415 -0.08320077 -0.097530924 -0.19212987
000380 ea 35 d6 bd 61 fd b4 bc 66 be 23 bd 84 85 9b 3d
       -0.10459502 -0.022093477 -0.0399765 0.075938255
000390 ef 04 ab 3d e9 67 91 3d 34 57 cf 3d 34 a2 90 3c
       0.083505504 0.070998974 0.101240546 0.01765547
0003a0 ef 6b 54 bd 16 35 73 bd bd 58 0c 3e 3f b2 d4 3d
       -0.051860746 -0.0593768 0.13705726 0.1038556
0003b0 ae 3b fa 3d 7c 26 cf 3d b6 76 72 3d 8b 75 f3 3d
       0.12218414 0.10114762 0.059195243 0.11887654
0003c0 d5 0b 42 3d 4b d7 5b bc e0 11 8d bd 2a 96 a0 bd
       0.047374565 -0.013418029 -0.06888175 -0.078411415
0003d0 92 0c d7 3c bc e4 81 bd 2c c6 09 3e 07 f3 f6 3d
       0.026251111 -0.06342456 0.13454503 0.120580725
0003e0 9e 15 c7 3b 01 16 b4 3d 3b 55 f6 3b eb a2 3d bd
       0.006075575 0.087932594 0.0075174845 -0.04629795
0003f0 74 c6 45 3d 5e 35 f1 bc 0b 21 ca bc 42 5c ce bd
       0.048284963 -0.029444393 -0.02467396 -0.100761905

layer1.0.conv1.bias f4 [16]
000000 53 35 d5 bd d3 80 21 be ce e5 b3 bd d8 86 1c bb
       -0.104105614 -0.15771799 -0.08784066 -0.0023884084
000010 e0 db c2 3d a0 92 55 bd 1a ea c2 bc 2f cd bb bc
       0.09514594 -0.052141786 -0.023793269 -0.022924988
000020 2b 20 b0 3c 13 82 5d 3d de 90 5f bd c9 f7 98 bc
       0.021499714 0.054079127 -0.054581515 -0.01867284
000030 79 c7 41 bd 49 b7 9e bd 9e ca 26 3d 98 ea 51 bb
       -0.047309373 -0.077498026 0.040720575 -0.0032030698

layer1.0.bn1.weight f4 [16]
000000 f0 a1 67 3f 42 6e 86 3f 78 95 81 3f 9a 73 82 3f
       0.9048147 1.0502398 1.0123739 1.0191529
000010 72 3d 7b 3f 2c 71 7a 3f 9e 17 60 3f 57 cd 5d 3f
       0.98140633 0.97828937 0.87536037 0.8664145
000020 57 84 90 3f 1a 8b 90 3f 30 f2 81 3f 8d 85 94 3f
       1.1290387 1.129245 1.0152035 1.1603256
000030 e2 41 80 3f 5f 14 8e 3f ad 11 6c 3f 59 30 8a 3f
       1.0020106 1.1099967 0.9221447 1.0796005

layer1.0.bn1.bias f4 [16]
000000 bb fa f2 bd 5b 28 a1 3c 1b fd 0a be 1c e8 68 be
       -0.11864229 0.019672563 -0.13573115 -0.22744793
000010 03 13 cd bd a8 36 c4 bd e2 25 07 be 90 2a 02 be
       -0.10013392 -0.09580737 -0.13198045 -0.12711549
000020 2f 93 22 bd d3 9d 85 bc 84 ca 46 bd 9a 4a c7 3d
       -0.039691146 -0.016310608 -0.048532978 0.09731026
000030 2b 45 25 be 8d 53 00 be 05 0f cd bd 14 8d 2f bd
       -0.16139667 -0.12531872 -0.100126304 -0.042859152

layer1.0.bn1.running_mean f4 [16]
000000 50 a3 27 bf 8a 5d 03 3f 9e e5 d0 bf 9c 32 07 40
       -0.6548357 0.51314604 -1.6320074 2.112464
000010 4f 07 62 be aa af 17 3e e0 ff 12 bf ea bc c5 3e
       -0.220731 0.14813104 -0.57421684 0.38620692
000020 11 7a 96 3e 3a 97 1e 3f 86 92 c6 3f 55 db 90 bf
       0.29390004 0.61949503 1.5513465 -1.1316935
000030 a4 02 93 bf ed 21 08 c0 80 2a 75 be 30 4a aa be
       -1.1485181 -2.1270707 -0.23941994 -0.33259726

layer1.0.bn1.running_var f4 [16]
000000 18 70 83 3f f0 1c a6 3f 6a d5 d5 3f 1c dd cb 3f
       1.0268583 1.2977581 1.6705754 1.5926852
000010 e9 18 73 3f bf 89 87 3f d6 33 7f 3f 9f a4 7d 3f
       0.94959885 1.0588912 0.9968847 0.99079317
000020 86 b3 ac 3f bb b1 d9 3f c1 58 4e 40 b2 01 93 3f
       1.3492286 1.7007364 3.224167 1.1484892
000030 9c 38 9b 3f b9 62 c4 3f a3 cf 7d 3f 93 86 5c 3f
       1.2126651 1.5342628 0.99144953 0.86142844

layer1.0.conv2.weight f4 [16, 16, 3, 3]
000000 e5 dc b7 3d 7a 31 d1 bc ca 95 fe bd df 62 9b bc
       0.08977679 -0.025536288 -0.12430914 -0.018968044
000010 57 ea 8f bc 33 5f db bd d0 32 ef 3c f4 74 b7 3b
       -0.017567797 -0.10711517 0.029199034 0.0055986587
000020 ad 10 02 be 3d bf 8a 3d 81 8e d2 3d c1 b0 f1 3d
       -0.12701674 0.06774757 0.10281087 0.11801291
000030 d3 75 5e bc e5 32 1f be ac 28 5f bd 23 33 33 bd
       -0.013577896 -0.15546758 -0.054482147 -0.04374994
000040 1e e8 f2 bd 68 03 98 bd 13 53 b9 bd c5 1f c2 bd
       -0.11860679 -0.07422525 -0.09049048 -0.09478716
000050 01 5d c8 bd e0 4a ef bd c2 dd 54 3d 7b ed c9 bd
       -0.09783364 -0.11684203 0.051969297 -0.09859749
000060 7d fb a9 3d 8f 6f a9 bc ac 13 62 3d 88 59 ea 3d
       0.08299921 -0.020683078 0.05519454 0.11442858
000070 94 93 0b 3d aa 46 c4 3c 51 b9 ad bd 36 90 30 3d
       0.03407629 0.023959477 -0.08482612 0.04310628
000080 e6 1d 21 be 6e 32 db bd 19 73 d6 3d f6 58 5e 3d
       -0.15734062 -0.10702978 0.10471172 0.05428406
000090 0d e3 07 bd 5f 5f 01 3e eb e4 ef bd 49 24 3a bd
       -0.033175517 0.12634037 -0.117135845 -0.04544476
0000a0 fb f3 84 3c d6 64 b0 bd 60 05 50 bd e2 8d 18 bc
       0.01622962 -0.08612983 -0.050786376 -0.009311171
0000b0 54 3c 01 be 71 fb 1f bd 3e 69 92 3c cc 0b 01 bd
       -0.1262067 -0.039058153 0.017872449 -0.03150539
0000c0 cc d8 83 3d 8f e9 38 3d ac 77 6a 3d d6 a9 f3 bc
       0.06437835 0.045144614 0.057243034 -0.02974407
0000d0 1e 52 f8 bd 1d b3 9a 3d 59 d1 17 3e 44 7d da 3d
       -0.121250376 0.075536944 0.14825954 0.10668424
0000e0 f1 d1 b6 bb 9d c7 a6 3d 5d 06 49 3d cb 55 cc bc
       -0.005579226 0.08143542 0.049078334 -0.024943253
0000f0 c4 be a1 3d 94 a4 00 be 48 8c 1b 3d b9 6d 00 be
       0.07897714 -0.12562782 0.03797558 -0.12541856
000100 76 13 8a 3c ac a7 a2 3c d5 86 90 3c 66 80 a7 bd
       0.016854983 0.019855343 0.017642418 -0.08178787
000110 0c 09 3c 3d 3f 79 20 bd e2 43 93 3c 24 bc 44 3c
       0.045907065 -0.03917813 0.017976705 0.012007747
000120 88 43 80 3d c5 07 fa 3d 45 86 8a bb ea 8d 11 3e
       0.062628806 0.12208513 -0.004227432 0.14214292
000130 dc 7b 3e 3d 81 37 ba bd da 62 37 3e da 09 69 bc
       0.04650484 -0.09092618 0.17908803 -0.01422354
000140 2c d5 15 bd 15 20 29 3e 45 c1 02 bd 12 fb e4 bd
       -0.03658025 0.16516145 -0.031922597 -0.111807
000150 ae b2 be 3c eb c6 3a be 8c f8 8e bd 62 f8 81 bd
       0.02327856 -0.18239944 -0.06981 -0.063462034
000160 07 39 84 3d 94 90 9c bd 61 83 10 3d 74 ee a6 bc
       0.064561896 -0.076447636 0.035281543 -0.020377375
000170 18 48 3c bd 86 16 7c 3d 85 63 8f bd c8 80 47 3d
       -0.04596719 0.061544918 -0.07001404 0.0487068
000180 73 f8 35 bc c0 0c b3 3d 10 c6 00 3e ed 23 01 be
       -0.011106598 0.08742666 0.12575555 -0.12611361
000190 20 00 3d 3d 7d 8a 22 3e b5 f9 fc bd 5a 42 e7 3c
       0.046142697 0.15873142 -0.12352315 0.028229881
0001a0 27 ee d0 3d 79 a6 ba bd bc a7 dd 3d fe 7b ee 3c
       0.10201674 -0.091137834 0.108230084 0.029111858
0001b0 42 de ca bd 9f 93 91 bd bc ab 26 be 96 29 26 3d
       -0.099056736 -0.071082346 -0.16276449 0.040567003
0001c0 d9 ae c7 bd ed 01 ec bd df f9 c2 bb 64 52 ed 3c
       -0.097501464 -0.11523805 -0.005950197 0.028969951
0001d0 f1 fb e1 3c 9a 2e 2f be 67 d1 06 be d5 e0 81 bc
       0.027585955 -0.17107621 -0.13165818 -0.015854279
0001e0 6e f7 cc bd d1 cd 01 be 8e bc 23 3e e5 6e a1 3d
       -0.10008131 -0.12676169 0.15989897 0.078824796
0001f0 99 87 9f 3c cb d8 80 3d 8e 76 72 3d 8a 25 14 3e
       0.019473838 0.0629135 0.059195094 0.14467445
000200 fd 2c 01 bd 56 6c 2e 3d ca 99 51 3d 98 15 60 3d
       -0.031537045 0.042583786 0.051172055 0.054708093
000210 c4 ab cd bd fd 6b 11 bd 06 d6 6a bd 07 4c 26 3b
       -0.10042527 -0.035503376 -0.057333015 0.0025374906
000220 b8 60 85 3c 7b be 34 bd 90 c3 0a be 9d 86 ef bd
       0.01628147 -0.04412697 -0.13551164 -0.11695597
000230 12 da 88 bd 52 55 e6 bd 4b 03 08 be 27 6e 55 bc
       -0.066822186 -0.11246742 -0.13282506 -0.013026751
000240 89 e8 5d bb 0b ab 6c bc 01 70 83 3c c6 0e 22 bd
       -0.0033860526 -0.014445077 0.016044619 -0.03956487
000250 d8 29 52 bc 16 47 c6 3c 90 68 74 3d ad e1 be bc
       -0.012827359 0.024203818 0.05967003 -0.02330097
000260 b6 48 db bd 60 7a 2a 3d 94 9c 5a 3d 4c 2f 55 bc
       -0.10707228 0.041620612 0.05337198 -0.013011765
000270 5a 5f ca bc 5f 55 59 bd 36 bd 05 be 56 e3 81 bd
       -0.02470367 -0.05305993 -0.1306046 -0.06342189
000280 b8 8e b5 bd 61 45 dd bd 6a 98 1e 3d 5c 98 dc bc
       -0.08865112 -0.108042486 0.038719572 -0.02692812
000290 31 cb ce bd 15 7f 7b 3d 54 6c 11 3c 0f 93 0a be
       -0.100973494 0.06140049 0.008875925 -0.13532661
0002a0 16 d4 0f bd 56 8c 4f bd 70 ac e9 bd 6b 1e f5 bd
       -0.03511437 -0.050670944 -0.11409843 -0.119686924
0002b0 2a c4 c1 bb 7a 0a ab 3c a6 d0 11 3c 9a a7 82 bd
       -0.005913277 0.020879019 0.008899843 -0.06379624
0002c0 48 db 0f 3e 50 e1 dc 3d 06 ea fd bc 18 8b 8b bd
       0.14048493 0.107851624 -0.03099538 -0.068136394
0002d0 2f 51 23 bd 4f 7c 15 be 08 10 1d 3e bc c6 8a bb
       -0.039872345 -0.14598201 0.15338147 -0.0042351168
0002e0 4b 2b d9 3c b0 bf 40 3e e6 ca 1d be 52 c9 ce 3d
       0.026509902 0.18823123 -0.15409431 0.100969926
0002f0 ca 76 0a 3e d3 30 b2 3c 30 68 61 ba 95 4a 91 bc
       0.13521877 0.021751797 -0.0008598594 -0.017735759
000300 e2 f6 97 bc 53 8f 9f bc 05 03 eb 3c 93 4c 3d bd
       -0.01855034 -0.019477522 0.028687963 -0.046215605
000310 a2 a3 8c 3d c6 33 10 3d 43 d9 b4 3c a5 04 86 bd
       0.06867148 0.035205625 0.022076255 -0.065438546
000320 dc 1a 3d be f2 01 5f 3d 62 fe b7 3d 14 e6 8d bd
       -0.18467277 0.054445215 0.089840665 -0.069286495
000330 cc 12 c2 3c b2 d5 19 3c 4e d8 5b bd 31 48 b2 bd
       0.023690604 0.009389328 -0.05367308 -0.08705176
000340 40 d7 38 bd 9a 5a 4b bd 66 33 10 be 4c 8c 0d bd
       -0.045127153 -0.04964695 -0.14082107 -0.034557626
000350 47 1c 7d bc f0 52 6b bd c4 34 bf 3d e7 29 bc 3d
       -0.015448636 -0.057452142 0.09336236 0.0918768
000360 cd 3e 0f 3e b4 3f 81 bd 2c 42 e6 bc d7 aa fa 3d
       0.139888 -0.063109785 -0.028107725 0.12239616
000370 37 d4 3b bd 53 a4 c2 bd c5 2c e5 bd 54 66 33 bb
       -0.04585668 -0.095039986 -0.1119018 -0.0027374225
000380 3b 06 d7 3d 03 9a b2 bd cd aa 41 bd 68 88 b5 3d
       0.10499235 -0.08720782 -0.04728203 0.08863908
000390 8a 45 32 be d9 97 85 bb 1c 64 20 3e a4 23 44 3c
       -0.1740934 -0.0040769395 0.15663189 0.011971388
0003a0 9f 23 28 be 61 ca 8d bd af 5c cd bc b9 f9 c6 3c
       -0.16419838 -0.06923366 -0.025068609 0.024288999
0003b0 64 d0 9d 3c b9 b9 1f 3d 29 5a 5b 3d 67 a8 09 3d
       0.019264407 0.03899548 0.05355278 0.033607867
0003c0 89 ff ca 3d 11 9d 43 bd a0 a6 8a 3d aa 90 cb 3d
       0.09912021 -0.047757212 0.067700624 0.09939702
0003d0 61 09 3d be e7 c4 50 bd 0e ad 0c 3d 54 73 1d be
       -0.18460609 -0.05096903 0.034344725 -0.15376025
0003e0 18 44 2d be 1b 1a f5 bd 4c 5d 7c bd 83 d3 04 3d
       -0.16920507 -0.1196787 -0.061612412 0.032428276
0003f0 a6 2a 9b bd 14 77 d7 3d 0e ce 86 bc 28 7d 2b 3e
       -0.07576494 0.10520759 -0.016455676 0.16746962

layer1.0.conv2.bias f4 [16]
000000 34 96 1c bd e4 51 84 3d 66 fe 3b bc cf a1 a7 3c
       -0.038229182 0.06460932 -0.0114742275 0.020462899
000010 ca f4 47 bd 08 55 05 be 78 ae 50 bc ea 9a c0 3d
       -0.048817433 -0.13020718 -0.012736909 0.094045475
000020 09 7f 51 3d 05 5f 83 bd 45 5b ff bd a7 1d cb bc
       0.05114654 -0.06414608 -0.1246858 -0.024794413
000030 78 80 b5 3c 55 82 ce 3c 14 30 b4 3d ff 6f d0 3d
       0.022155985 0.025208632 0.08798233 0.101776116

layer1.0.bn2.weight f4 [16]
000000 7e bf 84 3f 38 bd 8d 3f 9c 09 8c 3f 99 8d 80 3f
       1.0370939 1.107337 1.0940433 1.0043212
000010 26 37 85 3f d0 27 70 3f 84 8c 84 3f c9 50 6b 3f
       1.0407455 0.9381075 1.0355382 0.91920143
000020 e5 d8 7d 3f 86 38 74 3f dd d1 86 3f 0c ae 88 3f
       0.9915908 0.9539875 1.0532795 1.0678115
000030 30 b9 83 3f e6 e6 8f 3f 0d d9 8c 3f b1 0e 86 3f
       1.029089 1.124234 1.1003739 1.0473233

layer1.0.bn2.bias f4 [16]
000000 25 01 af bd 45 c1 25 be 85 95 f6 bd cb 9c a0 bd
       -0.0854514 -0.16187008 -0.12040237 -0.07842406
000010 18 b9 cf bd d2 6f 30 be 10 92 48 bd 8a b6 b7 bd
       -0.10142726 -0.17230156 -0.04896742 -0.089703634
000020 e1 f9 10 be 94 cf f2 bd 68 fa 2c be be 54 36 be
       -0.14157821 -0.11855999 -0.16892397 -0.17805764
000030 47 5b 1e be ba a3 0e be 99 4f 02 be c5 ab 3b be
       -0.15464507 -0.13929644 -0.12725677 -0.18327244

layer1.0.bn2.running_mean f4 [16]
000000 31 c4 ed be d9 51 32 bf a3 a3 09 3f d2 f3 79 be
       -0.46438745 -0.6965614 0.53765315 -0.24409416
000010 8b 2d 9b 3f b9 45 21 bf 4e 60 80 be 47 4b 19 bf
       1.2123274 -0.62997013 -0.25073475 -0.5988049
000020 a0 5c a7 bd b5 89 08 bc 3f 30 c3 bd 4d 4f ca be
       -0.08171964 -0.008333613 -0.095306866 -0.39513627
000030 57 6e 54 3f 0a 0f 05 3e 8c cc 99 be cf b1 df be
       0.82980865 0.12994018 -0.3003887 -0.43690345

layer1.0.bn2.running_var f4 [16]
000000 d4 d8 1a 3f 6e e8 6e 3f 74 8a 75 3f 32 73 6a 3f
       0.60487103 0.9332341 0.9591439 0.91582024
000010 b8 a3 a6 3f 5b 87 80 3f 21 63 5d 3f 57 c3 3d 3f
       1.3018713 1.0041307 0.86479384 0.7412619
000020 01 f6 47 3f 86 7f 25 3f da d0 6c 3f 24 98 73 3f
       0.7810975 0.6464771 0.9250618 0.95154023
000030 e1 89 13 3f dd 64 b4 3f 34 4f 0d 3f c5 c4 3a 3f
       0.5763226 1.4093281 0.5519898 0.72956496

layer2.0.conv1.weight f4 [32, 16, 3, 3]
000000 7d 98 39 be cf 8c 75 3c ee 01 2c be 2a e3 c7 bc
       -0.18124576 0.014987185 -0.16797611 -0.024400312
000010 2c b2 2e 3e 89 c6 82 3d 6c 38 a7 bd 77 88 a1 bd
       0.17060155 0.06385524 -0.081650585 -0.07887357
000020 67 6b cb 3d dc df 7a 3d 2c a1 2c bd 18 86 f0 3d
       0.09932595 0.061248645 -0.042145893 0.11744326
000030 09 cd c8 3c 2d db aa bd a9 16 dc bd 6e 6c 0f be
       0.02451183 -0.08342586 -0.107465096 -0.14006206
000040 f7 c1 9c bd bf 7a fd bd d5 34 d8 3c ba 78 83 3c
       -0.07654183 -0.123769276 0.02639238 0.016048778
000050 05 5c bd 3d ac bd 35 bc d8 0c b6 bd c5 1c cc bd
       0.09246067 -0.011092585 -0.088891685 -0.09966425
000060 7a 3a 47 bc 82 d9 dc bd 0f 96 2c be d4 02 a4 3c
       -0.012159938 -0.10783674 -0.16854118 0.02002088
000070 46 0d a5 bc 0d fa ec bb 60 c0 c0 36 4f 2f f1 bc
       -0.02014793 -0.007231957 5.7444413e-06 -0.029441504
000080 dd a8 a2 bd 38 c3 b2 3b a3 c8 0e 3d dd 1e 70 3d
       -0.07942364 0.005455401 0.03485931 0.058623184
000090 de 95 1b 3e 7f ad db bc 00 9b b5 bd 5d 97 60 3b
       0.15193889 -0.026816128 -0.088674545 0.0034269907
0000a0 46 ff 15 bd 15 14 92 bd 78 fa 77 3d 7b ed 90 bd
       -0.0366204 -0.071327366 0.0605416 -0.07076546
0000b0 b6 0a 02 be a6 b8 59 bc 37 1f 76 3d 5f 9c 1a be
       -0.12699398 -0.0132886525 0.060088363 -0.15098713
0000c0 5b 02 bf bd 64 97 86 3d d1 7c 04 be e1 8f 64 bd
       -0.09326621 0.06571844 -0.12938239 -0.055801276
0000d0 85 74 ac bc 8a 7b cb 3d 6b 58 e8 3d a5 d5 5b 3d
       -0.021051655 0.099356726 0.113449894 0.053670544
0000e0 7b d5 06 3c 26 88 45 3d 5b 42 5f bd ab 86 9b 3d
       0.008229609 0.048225544 -0.05450664 0.07594045
0000f0 b6 b0 a2 bd 1a 3e 0f 3d b3 aa 97 bd 8d e5 80 3d
       -0.07943861 0.034971334 -0.07405605 0.06293783
000100 ea de ed 3d 7d e3 e8 3d 5c a0 07 3d a2 c7 dc 3c
       0.11614783 0.11371515 0.033111915 0.026950661
000110 57 e9 1d 3d 98 78 b7 ba c6 63 6f bd 76 46 f0 3c
       0.03855261 -0.0013997732 -0.05844476 0.029330473
000120 54 4d 6e 3d 85 2f 02 3e 91 d2 f7 3d 3e b9 e5 3c
       0.058179215 0.1271344 0.12100709 0.028042432
000130 bf 76 88 3d a1 7a 0c be 72 94 83 3c 1a e1 17 3e
       0.06663274 -0.13718654 0.016061995 0.14831963
000140 be 72 7d 3c 8e 91 2b bc 82 a5 d2 bd d4 da b7 3c
       0.015469251 -0.010471715 -0.10285474 0.022443213
000150 d1 2b 03 bd a0 b2 a0 bd 95 c0 00 be c5 ab ac bb
       -0.03202421 -0.0784657 -0.12573464 -0.0052695
000160 e2 d4 69 bd 9b 19 86 bd 76 c4 70 bd 67 c8 8a bd
       -0.057087786 -0.065478526 -0.05878111 -0.06776505
000170 54 8b 88 3c 20 37 31 bd f1 0b a3 bc 6f 5a 69 3d
       0.016668 -0.043265462 -0.019903155 0.05697101
000180 df 79 0e be 18 80 88 3d 38 8e 02 3c eb 4a ab bc
       -0.13913678 0.06665057 0.007968478 -0.020909747
000190 53 0c b6 3d d2 09 01 bd 17 67 92 bd 69 a8 8a 3c
       0.088890694 -0.031503506 -0.07148569 0.016926007
0001a0 07 ff 6c bd 41 67 e2 3c 12 95 ea 3a 49 15 b3 3d
       -0.0578604 0.027637126 0.001789721 0.08744294
0001b0 e3 43 b9 bc 16 d0 e6 3c 09 10 51 3d 88 ab 29 3c
       -0.022615379 0.028175395 0.051040683 0.010355838
0001c0 d6 b7 94 bc 5e c1 ba bd a8 9d 56 bb 0d f8 bf bd
       -0.018154066 -0.09118913 -0.003274778 -0.09373484
0001d0 22 fd 89 3d e0 b7 db bb ba 8c d8 3d ce a9 13 bd
       0.067377344 -0.006705269 0.105737165 -0.03605061
0001e0 78 79 a6 bd 05 45 1a be ea 08 b1 bd 1e 55 15 bc
       -0.08128637 -0.15065391 -0.08644278 -0.009114532
0001f0 1d 1b 28 bd 81 7a d8 3d 71 87 7f bd 34 42 e2 3d
       -0.041041482 0.10570241 -0.062385026 0.110477835
000200 d8 dd 65 3d ee e3 81 bb 8e 3f f1 3c d3 61 d1 3d
       0.05611977 -0.003963939 0.02944925 0.102237366
000210 f0 4e 8b bd 00 97 da 3c ce b6 04 3e 04 c8 93 bc
       -0.068021655 0.02668333 0.1296036 -0.01803971
000220 d8 12 22 be ac 6c 0d 3d c8 e3 ce bd e1 f6 34 be
       -0.15827501 0.034527466 -0.101020396 -0.17672302
000230 cf cb 07 be 8d 9f ed bd 27 61 7c 3c 03 d2 e3 bd
       -0.1326134 -0.116026975 0.015404022 -0.11124041
000240 7c 3b 46 be 75 28 ad bd 7c b0 8d bc b9 b5 c5 bd
       -0.19358629 -0.08454982 -0.017296068 -0.096538015
000250 e8 fa e8 bd 9f 9c 6b 3d e1 07 69 3d 96 ad 6f 3c
       -0.113759816 0.057522412 0.05689228 0.014628788
000260 12 a7 20 3e e0 a6 87 3d 6e 4c b5 bc b4 5e 04 3d
       0.15688732 0.06623626 -0.022131171 0.03231688
000270 2a 38 58 3e fa 69 1d 3e b8 c3 1e 3e 09 17 06 3e
       0.21115175 0.15372458 0.15504348 0.13094725
000280 b5 9a ac 3c 2d 1b d9 bd cd 1b a5 3d 27 db 9e bc
       0.021069864 -0.106008865 0.08061943 -0.01939161
000290 9f fb c8 bc cd 89 fd 3d b6 03 68 bd cc 95 28 bd
       -0.024534045 0.12379799 -0.056644164 -0.041158482
0002a0 e3 47 00 3e 6a 5f dc 3d bb 9d 9d bc 85 ef ba 3d
       0.12527423 0.10760386 -0.01924025 0.09127716
0002b0 00 d7 64 3b 96 89 c2 3c 0a 6f 09 3e 7a 03 57 3c
       0.003491819 0.023747247 0.13421264 0.0131233875
0002c0 88 01 80 bb 5b e6 e0 bd fa 93 ff bb 03 85 72 3d
       -0.0039064325 -0.10981437 -0.0077996226 0.05920888
0002d0 9c 03 80 3d 1e ac 8b bd d5 d9 85 bd f4 4b 06 3e
       0.062506884 -0.06819938 -0.06535689 0.13114911
0002e0 07 e7 17 3b 99 85 f2 bc a2 f8 a6 3c 1a 8f 80 bd
       0.0023178475 -0.02960472 0.02038223 -0.062772945
0002f0 04 0a 2a 3d 99 bb bf bd e2 a3 66 bc 24 32 fa 3c
       0.041513458 -0.09361953 -0.014077159 0.030541487
000300 1c 7b 48 3d ca 8b f2 3d ea 81 a4 3d 74 40 d1 bd
       0.04894553 0.11843069 0.08032592 -0.102173716
000310 1e 52 29 bc 3b ab 36 3e b3 14 26 3d 15 a3 6d 3d
       -0.01033452 0.17838757 0.040547084 0.058016855
000320 de 25 c8 3b 35 da 97 3d c1 ac 2a 3e b5 e3 02 be
       0.0061080297 0.074146666 0.16667463 -0.12782176
000330 b5 14 2b bd 06 76 01 3e 62 31 00 bd eb 1b 8a bd
       -0.041767795 0.12642679 -0.031297095 -0.06743606
000340 28 0e ae bd 6d b0 25 3d c3 d5 a2 bd 02 80 d7 3c
       -0.08498794 0.040451456 -0.07950928 0.026306156
000350 29 ae b6 3d 7d a2 71 3b b5 d6 b4 3d df 8e fe 3d
       0.08919937 0.0036870532 0.088300146 0.12429594
000360 30 c4 0f 3d 4d e2 f2 3d 5a 0f 1a 3d c8 7c cd bd
       0.03509921 0.1185957 0.037612297 -0.10033566
000370 e4 3e 86 bd ca af 9d 3d 47 0c 5f 3d 5c e1 23 3e
       -0.06554964 0.07699545 0.054455068 0.16003937
000380 f4 71 89 bd e8 42 1e bc 8e c2 e8 3d 88 18 f1 bd
       -0.06711188 -0.009659506 0.11365233 -0.11772257
000390 bd ef 0e bd 34 53 7f 3d 4e 41 37 bd f1 67 2b bd
       -0.0348966 0.062335208 -0.044740014 -0.041847173
0003a0 46 62 da 3d 1e 17 b7 3c db 8c fc 3c 1a 7e fe 3c
       0.106632754 0.02234989 0.030828884 0.03106599
0003b0 d4 67 1c bd 1f 37 91 bd f6 0c 2d 3c 29 0f 17 bc
       -0.038184956 -0.07090592 0.010562172 -0.009219923
0003c0 26 e6 78 bd fd a7 8d 3d fb ad cb 3d c2 c5 8d bd
       -0.06076636 0.06916807 0.099452935 -0.06922485
0003d0 a2 61 17 bd a0 90 8c bd 42 33 16 3d 71 8d a6 bd
       -0.036958344 -0.068635225 0.036669977 -0.081324466
0003e0 6a be 6c 3d 79 bf 14 be 3c 45 43 3d d2 ad b0 3d
       0.05779878 -0.14526166 0.04767345 0.086269036
0003f0 e0 6b 85 bd 04 f8 d2 bd ac aa 8f 3d a2 92 b1 bd
       -0.06514716 -0.103012115 0.07014975 -0.08670546

layer2.0.conv1.bias f4 [32]
000000 72 6c 8b bd b1 bd 97 bd 8c 78 2e bd 01 f0 b8 bc
       -0.06807794 -0.07409228 -0.04259543 -0.02257538
000010 c7 64 86 bd 05 ef 50 3d 4b 66 0b bd b3 b9 69 bd
       -0.065621905 0.051009197 -0.0340331 -0.057061862
000020 c0 ee 07 3c ff 3a 6d 3d 7b 06 97 3d 49 17 4a 3d
       0.0082966685 0.05791759 0.07374283 0.049338613
000030 8b 25 fc bc c6 18 9b bd cb 63 3b bd da 59 04 b9
       -0.03077962 -0.075730845 -0.045749467 -0.00012621973
000040 50 f1 13 3d 9d c3 1c bd 59 1a 79 bd 79 58 47 bc
       0.036118805 -0.03827249 -0.060816143 -0.01216709
000050 db 16 ea 3c f3 d4 5a ba 29 0b 8c bd a5 07 b5 3d
       0.028575351 -0.0008347772 -0.06838066 0.08839349
000060 58 9c a6 3b 66 b4 ed bc 11 c6 c8 bd 06 6e 10 3c
       0.0050845556 -0.029016685 -0.09803403 0.008815294
000070 7c 2a 72 bd 6b 09 c6 3c df 4a 23 3d 7e 13 15 3c
       -0.059122548 0.024174413 0.039866325 0.009098886

layer2.0.bn1.weight f4 [32]
000000 e2 64 82 3f 07 73 93 3f 96 88 7a 3f 51 3e 7b 3f
       1.0187037 1.1519479 0.97864664 0.9814196
000010 d5 e3 89 3f 65 6c 77 3f c8 e7 84 3f c2 1b 7f 3f
       1.0772654 0.9664977 1.0383234 0.9965173
000020 f6 91 80 3f fc 6b 68 3f cd bb 84 3f 93 7d 8b 3f
       1.0044544 0.9078977 1.0369812 1.0897697
000030 51 c1 82 3f f0 83 8f 3f b6 a9 85 3f 5b 97 84 3f
       1.0215245 1.1212139 1.0442417 1.035869
000040 04 bb 89 3f 74 c1 85 3f 40 bf 85 3f a8 2a 87 3f
       1.0760198 1.0449662 1.044899 1.0559893
000050 b3 06 83 3f 1d 42 78 3f f4 07 8b 3f 84 68 79 3f
       1.023642 0.9697588 1.0861802 0.97425103
000060 00 21 67 3f 0e cf 84 3f 78 45 76 3f d7 10 7a 3f
       0.9028473 1.0375688 0.9619975 0.97681946
000070 7e 70 7c 3f a7 cc 80 3f 2a c7 77 3f f7 62 88 3f
       0.9860915 1.0062455 0.96788275 1.0655202

layer2.0.bn1.bias f4 [32]
000000 08 df 94 3c 9b 71 4d bd b0 ec 26 be 71 3c 10 be
       0.018172756 -0.05015717 -0.16301227 -0.14085557
000010 e2 fc 62 bd 08 3f 0a be d0 86 34 bd 11 98 07 bc
       -0.05541695 -0.13500607 -0.04407388 -0.008276002
000020 82 8f 42 bd 2b fe c8 bd 80 8a 6c bd 2a 27 7f 3d
       -0.04750014 -0.09814104 -0.05774927 0.06229321
000030 ac 6a ff bd 9f 77 83 bc 98 59 3d bd 98 a6 9c 3b
       -0.12471518 -0.01604825 -0.04622802 0.0047806017
000040 b6 a1 b8 bc bb 51 12 bd 52 9b b9 3c 4f 46 7e bd
       -0.022538047 -0.035722475 0.02265707 -0.06207877
000050 f4 33 85 bd 0d 26 ea bd 7f a4 9f bd c6 f3 00 be
       -0.0650405 -0.11433039 -0.07795047 -0.12592992
000060 18 99 4d be 8a fa a3 3b 0a 41 96 bd 9d 13 46 be
       -0.20077932 0.005004232 -0.07336624 -0.1934342
000070 76 d4 c6 bd ab 35 44 bd 52 7e 85 be a3 b5 05 3d
       -0.097084925 -0.047902744 -0.26072937 0.032643925

layer2.0.bn1.running_mean f4 [32]
000000 01 ab e1 bf 89 95 aa 3f 51 da 14 3f cb 9b a6 3e
       -1.7630311 1.3326885 0.58145624 0.32540736
000010 98 8a c7 bf 85 db 52 bf 90 4f c9 be 95 89 2f be
       -1.558917 -0.8236621 -0.39318514 -0.17142327
000020 ef 64 2f bf 49 24 bd bf 61 c3 0b c0 23 59 7f c0
       -0.6851339 -1.4776698 -2.1838 -3.9898155
000030 45 15 de 3f 37 5a a1 bf 08 75 b1 be a8 50 0c c0
       1.7350241 -1.2605656 -0.346596 -2.1924229
000040 92 ae a1 3e 00 3c 80 bf 9b f3 37 bf fc a7 c7 3e
       0.315785 -1.001831 -0.7185609 0.3899535
000050 15 d2 7c 3f e3 f6 a8 3f ea 40 00 40 c8 11 2d c0
       0.9875806 1.3200344 2.003962 -2.7042103
000060 0f c5 58 be 3d b6 c4 bf f2 96 d2 be 63 87 43 40
       -0.21168922 -1.5368115 -0.41130787 3.0551383
000070 05 0b e1 3f 20 e9 8c bf d3 4e e0 3e 29 b0 87 bf
       1.7581488 -1.1008644 0.43810138 -1.0600635

layer2.0.bn1.running_var f4 [32]
000000 aa 83 0e 40 f8 9d 2c 40 c7 08 5e 40 d8 14 50 40
       2.2267861 2.6971416 3.4692857 3.2512722
000010 f2 8a 3b 40 c0 0d 6e 40 f7 1c 75 40 2f a7 34 40
       2.9303555 3.7195892 3.8298929 2.822704
000020 f0 ce 4a 40 bd f8 ee 3f 09 b4 a5 40 66 a5 7a 40
       3.1688805 1.8669659 5.178227 3.9163451
000030 82 b8 5a 40 19 8e 84 40 f9 24 ef 3f fd e4 00 40
       3.4175115 4.142346 1.8683158 2.0139763
000040 17 fb 51 40 41 b9 68 40 c1 3e 5b 40 50 5e 6d 40
       3.2809503 3.636307 3.4257052 3.7088814
000050 67 a3 41 40 ed 85 2f 40 a8 b6 8a 40 dc ef 3b 40
       3.0255983 2.7425492 4.334797 2.9365149
000060 df 3b 3c 40 f1 b3 b1 40 34 6d 02 40 c0 a4 4c 40
       2.9411542 5.5532155 2.0379152 3.1975555
000070 1c c7 09 40 87 48 4e 40 4a 31 f6 3f 32 03 0d 40
       2.1527777 3.2231767 1.9233792 2.20332

layer2.0.conv2.weight f4 [32, 32, 3, 3]
000000 0c ad 05 bd b0 4e 92 bb 0a 98 c2 bc 24 ec 5d bd
       -0.032635733 -0.0044649467 -0.023754138 -0.05418028
000010 92 ca b0 3b a6 85 26 bd 6b 67 12 be 29 84 58 bd
       0.005395242 -0.0406548 -0.14297263 -0.052860413
000020 ab d1 3c 3e da bc 8e bd b3 d5 04 be 2c a8 dc bc
       0.18439357 -0.06969614 -0.12972145 -0.02693566
000030 30 8b 08 bd a4 47 e7 bd 0b a5 b3 bb 79 3a 22 3e
       -0.033335865 -0.11292961 -0.005482321 0.15842618
000040 25 d5 d0 3d 55 69 b2 3d 74 56 c9 3d 9f fc 9b 3c
       0.10196904 0.08711497 0.09830943 0.019041358
000050 16 b9 fc 3c f1 38 2e 3d 9a 4f df bc d6 eb 7b bd
       0.030849975 0.042534772 -0.027259637 -0.061504208
000060 a8 06 b0 3c c5 1f c4 bc 01 60 78 bd ec 74 bc bc
       0.021487549 -0.02394093 -0.06063843 -0.023004971
000070 b4 83 9e 3c e6 8a 03 3d 7e cc 8d 3d e1 f9 07 bd
       0.01934991 0.032114886 0.069237694 -0.033197287
000080 fa c5 01 bd 6e dc 10 3d e9 78 5c bc de c3 85 3d
       -0.031682946 0.035366468 -0.013456562 0.06531499
000090 6c 7d 11 3b 9e 41 f4 bb 03 95 13 be fd 35 88 3d
       0.0022200001 -0.0074541112 -0.14412312 0.066509224
0000a0 f3 c0 29 3d a9 27 c0 3c be 44 5b 3d 60 1b 2c 3e
       0.041443776 0.023456411 0.053532355 0.16807318
0000b0 d0 fe 18 3e 4a ae ba 3d e8 8a e2 3d a2 bb e0 3c
       0.14940953 0.09115274 0.110616505 0.02743322
0000c0 d8 3f 97 3c 62 29 a3 3c 29 69 10 bd e0 62 8f 3d
       0.01846306 0.019917194 -0.03525654 0.07001281
0000d0 3a 3e c0 3c d0 79 8b 3d a8 86 fc 3c 8d 00 44 bd
       0.023467172 0.06810343 0.030825928 -0.047852088
0000e0 11 d2 de 3b f5 1c 9b 3c ff 4c 78 3d 34 f6 03 3e
       0.006799944 0.018934706 0.060620304 0.12886888
0000f0 f9 17 a3 3c 1c e3 a9 3d 8e 03 b4 3b 9f f1 02 bd
       0.019908892 0.08295271 0.005493588 -0.03196871
000100 94 1d 12 bc d6 9b ca 3d 5d 56 b4 bd ec 7f 61 bc
       -0.008918185 0.098930046 -0.08805535 -0.013763409
000110 3a a7 3a 3e cb 43 36 bd 20 c8 ac bd ec fc 83 3d
       0.18227854 -0.044498246 -0.08436608 0.064447254
000120 42 73 a8 bc 63 cd fa bd 76 b3 af bd bb 52 74 3d
       -0.020562772 -0.12246206 -0.08579151 0.05964921
000130 13 d7 0c be 9f a9 84 bd ed fc 7d 3d a5 7e 8c 3d
       -0.1375392 -0.06477665 0.062008787 0.06860093
000140 70 3b d5 bc c3 20 96 3d 27 dc 09 be ca 29 a7 bc
       -0.026029319 0.073304676 -0.13462888 -0.020405669
000150 86 6d 9a bc d8 7e 97 3d 9b 75 9f 3c ef dc e9 3c
       -0.018851053 0.073972404 0.019465258 0.028547732
000160 ec c1 42 bc 70 1e 63 3c 7b ff 9b bb 48 3b 55 bc
       -0.011887055 0.013862237 -0.0047606803 -0.013014622
000170 23 b4 47 3b 04 ef fc bc b2 a3 f0 3c 31 e6 9d bd
       0.003047236 -0.03087569 0.029374931 -0.07709921
000180 df 51 5d bc f2 28 f4 bd 70 88 ef bc a4 33 d4 bc
       -0.013508289 -0.11921872 -0.029239863 -0.02590353
000190 9b 1f 13 3e e1 ce 76 3d 7f a9 52 bd b3 a8 01 3d
       0.14367525 0.06025589 -0.051431175 0.031655025
0001a0 aa b5 27 bd 84 a1 32 be 5a f4 9f bd 8e 32 24 bd
       -0.040944733 -0.17444426 -0.07810278 -0.040087275
0001b0 c6 43 5f bb f6 bd 72 bd f7 f3 b5 bd 32 30 bc 3b
       -0.0034067496 -0.059263192 -0.08884423 0.00574305
0001c0 8a bf 38 be 30 e7 77 bd bb d9 b7 3d bc 10 7a bd
       -0.18041816 -0.060523212 0.08977076 -0.061051115
0001d0 7f e7 a1 3c 3f af 88 bc 3a bb 83 3d 07 21 8f 3d
       0.019763706 -0.016685126 0.06432195 0.06988721
0001e0 c1 2f b4 bc 35 ed be 3d 95 85 36 3d 0f 94 a0 bc
       -0.021995427 0.093225874 0.044560988 -0.01960185
0001f0 67 49 52 3d c5 d0 ff 3d 11 b1 84 3d d8 9d 24 3d
       0.051339533 0.124909915 0.06479085 0.040189594
000200 6a 46 6b bd 40 8c ed 3c 14 79 d1 bd cf cd 1a bd
       -0.0574402 0.02899754 -0.10228172 -0.03779393
000210 1a cf 01 3e c2 98 a6 3b a3 c6 ed bd 30 bd af bc
       0.12676659 0.005084128 -0.116101526 -0.021452516
000220 ed 78 a7 bc 5b d7 dc bb fa a3 48 bd c7 e0 80 bc
       -0.020443404 -0.0067395396 -0.048984505 -0.015732182
000230 5f 0f aa bd eb 02 bf bd 6b cb 0b be 2a 54 e8 bd
       -0.08303713 -0.093267284 -0.13651817 -0.11344178
000240 e3 b6 89 3d 8b 5f 00 3d ea fd 0d 3c 3e 5c ed bd
       0.06724336 0.031341117 0.008666495 -0.115898594
000250 d0 e7 34 be a1 18 2b 3d 0c c4 ae bd 5c d3 93 bb
       -0.17666554 0.041771535 -0.08533487 -0.00451128
000260 c1 81 58 bd 35 99 61 bd 4d 38 3a bd c5 06 ae bd
       -0.052858118 -0.05507775 -0.04546385 -0.08497385
000270 e6 52 d6 bc 7d 37 83 bd f5 b7 39 be ce 0c 6c bc
       -0.026162576 -0.06407068 -0.1813658 -0.01440735
000280 27 37 ae bd a3 c1 35 3c 41 51 ad bd 13 e4 08 3d
       -0.08506613 0.01109353 -0.084627636 0.033420634
000290 8e d1 7d bd 32 c6 44 3d da 26 50 3d 85 f6 16 bc
       -0.061967425 0.048040576 0.0508183 -0.009214048
0002a0 57 ab 17 3c 56 9d c7 3c 83 55 14 bb 74 7f 26 3d
       0.009257159 0.024367016 -0.0022633977 0.040648893
0002b0 60 19 35 3d 27 ae 0b bd 15 4e 0f 3e da b3 41 3d
       0.044213653 -0.03410163 0.1399463 0.04729066
0002c0 28 6d 7d 3d a4 84 a4 3c 9c 2b ca 3d d2 2b fd 3c
       0.061871678 0.02008278 0.09871599 0.030904684
0002d0 79 ea ea 3d cb cb 2b bd 32 a6 46 bd 99 3b b7 bd
       0.11470503 -0.0419424 -0.04849834 -0.08946914
0002e0 d9 04 a8 bd 48 29 17 3d a1 37 d3 3d a2 be a8 bb
       -0.082040496 0.036904603 0.10313345 -0.0051496783
0002f0 84 92 7f 3d 77 82 d8 3c 48 3f 4b 3d ff 25 05 3e
       0.062395588 0.026429398 0.049620897 0.13002776
000300 17 7a 2e bd b3 29 8f bc 64 52 9a 3d fd 0d 3b bd
       -0.042596903 -0.017475938 0.07535246 -0.045667637
000310 d6 b6 f3 bd 8c 69 a0 bd b5 40 90 3b 48 ad ba 3c
       -0.119001076 -0.078326315 0.004402245 0.022787705
000320 b6 11 12 bc 18 94 2e bd d3 b2 07 be 28 33 06 bd
       -0.008915355 -0.042621702 -0.1325181 -0.03276363
000330 f0 50 12 3c 57 ea ee 3d ff 08 08 3e 10 5c ba 3d
       0.00893043 0.116657905 0.13284682 0.09099591
000340 76 9f 15 3c 02 a0 e6 bc 87 73 3d bd 86 a0 09 3c
       0.009132257 -0.02815247 -0.046252754 0.008400088
000350 39 08 05 bd 77 1c 16 3d d9 91 52 3a d0 f9 0e 3d
       -0.032478545 0.03664824 0.0008032597 0.03490621
000360 ee 4c 6d 3d a9 f7 01 be 04 27 8d bb c5 49 77 3d
       0.057934694 -0.12692131 -0.0043076295 0.060373086
000370 99 25 63 3c 79 bc d7 bc b4 01 3e 3d 68 50 34 3c
       0.013863944 -0.026334988 0.046388343 0.0110054985
000380 36 1c f5 3c f5 30 20 3b 44 85 ad bd 40 c3 eb 3b
       0.029920679 0.0024443243 -0.08472684 0.0071949065
000390 aa e0 85 3c 56 8f fc bd 4a 1f 0b be 95 f6 28 bd
       0.01634248 -0.12332027 -0.13586155 -0.041250784
0003a0 df b1 99 bd 71 e9 9d bd f1 cb a0 3d c5 a4 ac 3d
       -0.07504629 -0.07710541 0.07851399 0.08429865
0003b0 bf 9d d5 bc 98 60 a0 3d ba 97 f9 3c 8e bd 74 bd
       -0.026076196 0.07830924 0.030467857 -0.059751086
0003c0 32 34 62 3d c0 bb 94 bd e9 f3 9c bd 4e 9a cc bd
       0.05522556 -0.07262373 -0.0766371 -0.09990369
0003d0 11 79 14 bd dd 5b 46 be e3 ed ff bc 57 c2 21 be
       -0.03624827 -0.1937098 -0.031241363 -0.15796791
0003e0 f5 01 b3 bd 8c 37 8f 3d e8 e2 d9 3d ab 50 a7 3d
       -0.08740608 0.069930166 0.10638982 0.08169683
0003f0 e6 87 99 3d 9b 1a 02 be 09 21 1c 3d b9 76 3f 3d
       0.07496624 -0.12705462 0.038117442 0.046744082

layer2.0.conv2.bias f4 [32]
000000 c9 d1 1c 3c 78 da 45 bd 79 88 69 bd 36 ef 20 bd
       0.009571501 -0.04830405 -0.057014916 -0.03929063
000010 08 e8 66 bc c8 d3 1e 3d d8 5d df 3c 8e fb 53 bd
       -0.0140934065 0.03877619 0.027266428 -0.051753573
000020 4a dc 78 3c 5e e1 18 bc e3 eb 08 bc a5 1f 89 bd
       0.01518924 -0.0093310755 -0.008357021 -0.06695489
000030 9b dd f1 bc 85 a2 b2 bc 55 66 26 bd b1 14 93 bd
       -0.029524615 -0.021806011 -0.040624935 -0.07181681
000040 5a 48 80 3b d7 94 ab 3c 9b f3 db 3c 01 bc 26 bd
       0.003914875 0.020944996 0.026849559 -0.04070664
000050 2a 34 e3 bb c5 cd dc bc f2 a0 49 3c 29 93 57 3d
       -0.0069337087 -0.026953587 0.012306439 0.052630577
000060 e0 3e c9 bb ce 57 4c bd 9e 77 2f 3d 38 cc f0 bc
       -0.0061415285 -0.049888425 0.042838685 -0.029394254
000070 68 c4 52 3d b2 36 4d bd 87 38 ba bc 76 23 cc 3c
       0.05145684 -0.05010099 -0.022732032 0.024919253

layer2.0.bn2.weight f4 [32]
000000 d4 bb 89 3f b8 ee 69 3f 0b 86 81 3f d0 ff 7c 3f
       1.0760446 0.9137988 1.0119032 0.9882784
000010 89 b3 83 3f fa 21 86 3f 24 7a 8d 3f d0 71 82 3f
       1.0289165 1.0479119 1.1052899 1.0190983
000020 16 16 8a 3f e1 ee 82 3f 3c 7c 83 3f 24 87 5d 3f
       1.078799 1.022915 1.0272288 0.86534333
000030 df 5f 86 3f 29 33 8d 3f f2 87 62 3f d3 2f 81 3f
       1.0498008 1.1031238 0.88488686 1.009272
000040 45 90 70 3f 0d 37 88 3f 71 8a 90 3f db 8a 80 3f
       0.9397014 1.06418 1.1292249 1.0042375
000050 6e 19 82 3f 14 49 83 3f 81 01 65 3f 6b 8f 82 3f
       1.016401 1.0256677 0.8945542 1.0200018
000060 84 56 98 3f a6 d5 8d 3f f5 45 8f 3f a7 6d 93 3f
       1.1901402 1.1080825 1.1193224 1.1517838
000070 72 03 80 3f 9e fe 8a 3f 77 26 85 3f 2f 34 89 3f
       1.0001051 1.0858953 1.0402364 1.071905

layer2.0.bn2.bias f4 [32]
000000 a2 41 65 3b 91 51 40 bc fa ea 05 3c b0 5e b0 bd
       0.0034981747 -0.011738197 0.008173699 -0.0861181
000010 46 a1 4b bd e8 d4 c3 bd 53 44 31 bd 96 cf e3 bd
       -0.04971435 -0.09562093 -0.04327805 -0.11123578
000020 fb a0 34 3c f6 3f f8 ba 47 a2 ed bd 51 4f ad bc
       0.011024709 -0.001893996 -0.116032176 -0.021155985
000030 04 71 1f bd 42 bd 4f 3d e2 11 55 3a 90 d7 07 be
       -0.03892614 0.0507176 0.000812797 -0.13265824
000040 9d 0a 6f bd 35 3f f5 bd f9 1b 66 bd ed ea 6c bc
       -0.05835973 -0.119749464 -0.05617902 -0.014460308
000050 1e 7d b2 bd 7f fa 18 be e7 61 49 be 09 8c 9b bd
       -0.087152705 -0.14939307 -0.19666253 -0.07595069
000060 07 33 29 bd c0 07 5f bd f4 f7 4d 3d 76 0e b7 bd
       -0.04130843 -0.05445075 0.050285295 -0.08938305
000070 7b 98 34 be 0f 2d 80 3d 64 0b 9f bb 3c 91 75 bd
       -0.17636292 0.06258594 -0.004853653 -0.05995296

layer2.0.bn2.running_mean f4 [32]
000000 6d 21 5b be 94 51 18 bf 68 2d 83 bf 52 33 11 3f
       -0.2139947 -0.5949948 -1.0248232 0.56718934
000010 da b9 64 bf 02 af bf be b2 72 89 3f d0 56 bd 3e
       -0.89346087 -0.37438208 1.0738127 0.36980295
000020 b1 f6 1b 3e de ef 09 3f 31 9a 96 bf 9c dc 48 be
       0.15230824 0.53881633 -1.1765805 -0.19615406
000030 28 87 f1 be 4a 77 bf 3e a4 9c 12 bf 2d 25 11 be
       -0.4717343 0.37395698 -0.57270265 -0.14174338
000040 4a f4 2e bf af 3c 80 bf f2 5e b1 be 2f b8 47 bf
       -0.68341506 -1.0018519 -0.3464275 -0.78015417
000050 93 1e 38 be 20 3f 05 3e 24 f0 c8 be 26 0d 06 bf
       -0.17980413 0.13012362 -0.39245713 -0.5236381
000060 dd b1 1c bf bd ed 86 bf 62 fe 17 bf 47 68 ba bf
       -0.612089 -1.0541302 -0.5937253 -1.4563073
000070 75 14 85 bf 57 19 8f bf 4f c5 fd 3e 06 a1 bc be
       -1.0396868 -1.1179608 0.49564597 -0.368416
