ml/models/resnet15_best.pth (torch, 411870 bytes, 56 tensors)

stem.0.weight f4 [16, 3, 3, 3]
000000 e0 aa fe 3c e8 53 49 3e ad 55 81 3d 34 b6 ec bb
       0.031087339 0.19660914 0.063151695 -0.0072238687
000010 2b 47 0b 3e 51 c4 d6 3d 45 cb fc 3d ef 3e 07 3d
       0.13601367 0.10486663 0.12343458 0.033019003
000020 7e 30 09 3c 77 61 98 3d d0 c6 69 be e2 52 1c be
       0.008373378 0.07440465 -0.22829747 -0.15265992
000030 a9 3b 57 be 4f 24 37 3d 39 1b 66 be 45 65 43 be
       -0.21018852 0.04471236 -0.22471322 -0.190816
000040 eb bf a4 bd 19 54 bb 3d 78 35 57 3e 20 ed f4 bd
       -0.08044418 0.091469 0.2101649 -0.119592905
000050 2e 2e ed bd f5 7c bb bd 22 86 1a 3e 69 62 ed 3d
       -0.11581074 -0.09154693 0.1509023 0.11591036
000060 29 fd 7d bd fe ec e2 bd 8f 1b 03 3d 12 7c 36 3d
       -0.06200901 -0.11080359 0.032008704 0.044551916
000070 e0 26 09 3e c4 d7 ba 3d 71 33 ee bd 17 34 0a be
       0.13393736 0.09123185 -0.116309054 -0.13496433
000080 35 52 05 be 70 c1 0a be 55 c2 1f be 80 02 4e be
       -0.1301964 -0.13550353 -0.15601476 -0.20118141
000090 e6 54 15 3e da 2d 18 bd 7c d0 e2 3d 0b 29 08 3e
       0.14583167 -0.037153102 0.110749215 0.13296907
0000a0 c3 fd 46 3e 5a 63 42 3e 23 15 0e be a5 ce 7b bd
       0.1943274 0.18983212 -0.1387525 -0.06147637
0000b0 b5 d5 17 be a4 86 c9 3c 5f 01 07 bd 7f 59 28 bd
       -0.14827617 0.024600334 -0.032960292 -0.041100975
0000c0 b3 25 61 3e ed f8 01 3e d2 b7 a5 3d 6c 9e 50 be
       0.21987037 0.12692614 0.080917016 -0.20372933
0000d0 bf 3b 52 be 1d df af 3d d4 95 4c be 11 64 30 be
       -0.20530604 0.08587477 -0.1997903 -0.17225672
0000e0 61 c7 33 3e 41 93 b3 3a b4 7f ed 3d a9 c7 95 3d
       0.17556526 0.0013700501 0.11596623 0.07313473
0000f0 9e 14 22 3e dc 0f c8 bd 43 63 a6 3d 9a 26 75 3d
       0.15828177 -0.0976865 0.081244014 0.059851266
000100 d6 ba 20 bd da c6 e5 bb ef dd 2f be 58 32 53 3e
       -0.03924068 -0.0070122303 -0.17174505 0.20624673
000110 ae e4 55 3e a0 79 5b bd 98 5a 67 3e 7f ac 8b 3c
       0.20888016 -0.053582788 0.22593153 0.017050026
000120 cc d9 91 3d fd 3b 33 3d 3a 2d 2e 3d be eb df 3d
       0.071216196 0.04375838 0.0425236 0.10933636
000130 47 ee 1a be f2 71 8a 3c f4 aa 87 bc 44 09 1a 3e
       -0.15129958 0.016900036 -0.016561009 0.15042597
000140 93 13 16 be 3f 7c a7 3d 13 84 71 bd 20 1b c3 bd
       -0.14655904 0.08177995 -0.058963846 -0.09526658
000150 4f 4b 32 3d e8 c0 30 3e d4 9e 2e 3d 5c 90 25 be
       0.04352885 0.17261088 0.04263194 -0.1616835
000160 16 ea 12 3e af bb 00 3e b1 fa a9 ba e6 5a 28 3e
       0.14347109 0.12571596 -0.0012968389 0.16440925
000170 01 b3 07 be ce 37 69 3d 48 29 6c 3b 31 3b c0 3c
       -0.13251878 0.056937985 0.0036035348 0.023465725
000180 ba 81 cd bd 3c f2 50 3e 3d a6 2f 3e 74 ef 5b 3d
       -0.10034509 0.20404905 0.17153259 0.053695157
000190 56 26 9e bd 36 37 55 3d f6 a6 0a bd f1 22 5d 3e
       -0.07722156 0.052054606 -0.033850633 0.2159536
0001a0 05 08 9c bd 2e 7d bd 3c 20 87 cd bd 52 a6 21 3d
       -0.07618717 0.02313098 -0.10035539 0.039465256
0001b0 5b 0c e5 3d cf f9 54 be 10 6d 0a 3d 60 7b f9 bd
       0.11183997 -0.2079842 0.033795416 -0.12181735
0001c0 29 ba 13 be 78 ad e3 bd d0 5b 20 be 51 a8 18 be
       -0.14426483 -0.11117071 -0.15660024 -0.14907958
0001d0 d3 a2 d1 3b 88 96 63 3e d2 3d 01 bd a6 cd 62 3e
       0.006397584 0.22225392 -0.031553097 0.22148761
0001e0 99 30 1d 3e e8 e4 33 3e f1 c0 d4 bc 4d fe 43 3e
       0.1535057 0.1756779 -0.025970908 0.19139977
0001f0 a9 65 45 3e 8d 66 80 3d 26 96 12 be cb df 53 3d
       0.19277062 0.0626956 -0.1431509 0.051727097
000200 c1 69 d2 bd 3f d3 2e be 9d d9 0d be 01 4a 0e be
       -0.10274077 -0.17072771 -0.13852544 -0.13895418
000210 4b ee 0b 3e 8e 95 1c be 19 1c 83 3d 43 fa 42 3e
       0.1366512 -0.15291426 0.064018436 0.1904078
000220 9c b3 f6 bd 6a 63 ec 3d fa a9 af 3d 67 d8 0f be
       -0.120459765 0.11542399 0.08577342 -0.14047395
000230 92 f2 2c be 21 25 d2 3d eb fc 10 be c6 e0 d5 3d
       -0.16889408 0.10260988 -0.1415898 0.10443263
000240 26 c0 5a be 4e 33 c1 bc e1 c8 22 bd 40 58 67 bc
       -0.21362361 -0.023584034 -0.039742354 -0.0141201615
000250 87 3f d5 3d 08 f7 43 3e 20 3e 57 be 73 de b8 bd
       0.104125075 0.19137204 -0.21019793 -0.09026804
000260 cc 92 5a 3e 53 83 e7 3d 79 ac 1c 3e 26 ea 64 bd
       0.21345061 0.11304345 0.15300168 -0.055887364
000270 02 ff 64 be 86 7b 89 3c 21 2f 04 3e 0e 53 05 be
       -0.22362903 0.016782533 0.12908603 -0.13019964
000280 05 fc 60 bd 46 f6 60 3e 22 89 51 3e c6 96 1b 3e
       -0.054927845 0.21968946 0.20462468 0.15194234
000290 88 f9 31 be 5d bd fa 3d 7a bc 01 3d 8a d0 c1 3b
       -0.17380345 0.122431494 0.031673886 0.0059147524
0002a0 ae 40 06 be 9b 47 07 be 76 18 15 3e b2 9c a2 3b
       -0.13110611 -0.13210909 0.14560112 0.004962527
0002b0 91 0e 3d 3e ce 27 30 3e 19 ea 99 3d da 65 54 3e
       0.18462588 0.17202684 0.07515354 0.20741978
0002c0 a1 fe f9 3d 28 30 02 be cb f4 43 be b1 d6 06 bd
       0.1220677 -0.12713683 -0.1913635 -0.03291959
0002d0 9d b0 80 bd 57 e2 eb 3d 18 6d 03 3e 80 05 f8 3d
       -0.06283686 0.1151778 0.12834585 0.12110424
0002e0 f1 5b 57 be b5 15 e4 3c b9 e5 8d 3c 55 a5 5d 3c
       -0.21031167 0.027842382 0.017321454 0.013528188
0002f0 3c ef 50 3c 5c cc ab 3b 90 a7 2e 3d d6 68 20 3d
       0.01275235 0.0052428674 0.04264027 0.03916248
000300 df d6 2f be e4 20 0d 3e a2 e7 e4 bd 8b 72 c6 bd
       -0.1717181 0.13782078 -0.11176993 -0.09689816
000310 ae d7 32 bc 12 e7 02 be d0 9c 93 bd 83 c8 88 3d
       -0.01091568 -0.12783459 -0.07207644 0.066788696
000320 d1 69 79 3d 11 9a 00 3c 3f 66 43 3e 44 78 71 bd
       0.06089193 0.007849232 0.19081973 -0.058952585
000330 2a fa a0 3c d0 1c 68 3d 4c 47 30 be be 95 65 be
       0.019650538 0.056668103 -0.17214698 -0.22420403
000340 2f b5 d4 bd ea fe 1c 3d 4e b1 4d be d9 11 c7 3c
       -0.103861205 0.038329042 -0.20087168 0.024300503
000350 db 74 fb bd 5f 1f 46 be a9 e8 a2 3c 24 45 9f 3d
       -0.12278148 -0.19347905 0.019886332 0.077768594
000360 75 7d 52 3e 67 86 fb bc 37 37 d5 bd 0e b9 0c bd
       0.2055567 -0.030703736 -0.10410922 -0.03435617
000370 e9 f4 a6 3c e7 3c 69 3e 5b 4c 56 be f1 0f 65 3e
       0.020380454 0.22777139 -0.20927565 0.22369362
000380 56 c8 eb 3d e7 01 2a be 1f 5e 19 be 53 12 d5 3d
       0.115128204 -0.16602288 -0.1497731 0.10403886
000390 60 af 19 3c a5 c0 3b be d5 04 52 be 6c 31 d2 3d
       0.009380192 -0.18335207 -0.20509656 0.10263333
0003a0 56 3e 52 3d f7 07 53 be 77 13 99 3d 9e 0d 39 bb
       0.05132898 -0.20608507 0.07474416 -0.0028236876
0003b0 61 4b 17 3e 9c 5a 45 bd b8 5e 3d 3e 22 4d 37 3d
       0.14774849 -0.048182115 0.18493164 0.044751294
0003c0 a2 f2 f4 3d ae 95 e3 bd 7b c6 bb bd ee 83 24 3e
       0.11960341 -0.111125335 -0.091687165 0.16065952
0003d0 2f 90 95 3d ae 3f 00 3e fe f4 52 3c a9 cc ce bd
       0.073028915 0.12524292 0.0128757935 -0.100976296
0003e0 a6 8d 89 3d 5d 8b 29 3c b2 20 ba 3d 78 a0 c3 bb
       0.067164704 0.010348168 0.090882674 -0.005970057
0003f0 b3 8d 11 3e 4e e8 b0 bc bb 37 f8 3a 9c a9 91 bd
       0.1421421 -0.021595147 0.0018937507 -0.071124285

stem.0.bias f4 [16]
000000 b8 6e de 3d 10 9d c7 bd ea 10 79 bd 21 7c f1 bb
       0.10860962 -0.09746754 -0.060807146 -0.0073695336
000010 a5 85 bc 3a ea 50 e2 3b e2 ee dd 3d ce 8f dd bd
       0.0014383091 0.0069066184 0.10836579 -0.10818444
000020 6b 92 30 3e 38 59 c8 bd 0b c3 dc bc d2 22 a9 bd
       0.17243354 -0.09782642 -0.026948472 -0.082585946
000030 b0 a0 2c be 57 e4 e8 bd b8 1d 2f be cb 9d ec bb
       -0.16858172 -0.11371677 -0.1710118 -0.007220959

stem.1.weight f4 [16]
000000 19 41 94 3f 9e ff 8a 3f 64 ab 87 3f b3 cb 92 3f
       1.1582366 1.0859258 1.0599179 1.1468414
000010 47 53 8b 3f 9b ec 93 3f 9e 40 85 3f 04 99 8a 3f
       1.0884789 1.1556581 1.0410345 1.0827947
000020 bd 84 93 3f 33 7d 90 3f 6f 88 84 3f ec 37 91 3f
       1.1524884 1.1288208 1.0354136 1.1345191
000030 a0 9c 84 3f 35 fd 8d 3f eb 07 94 3f 33 37 8d 3f
       1.0360298 1.1092898 1.1564916 1.103247

stem.1.bias f4 [16]
000000 9f 77 ff bd f0 b1 05 be b1 f1 10 be 2c fb 15 be
       -0.12473988 -0.13056159 -0.14154698 -0.14646596
000010 54 f8 32 3d de 6f f3 bd cf ce 9d bd e3 53 1c bc
       0.043693855 -0.11886571 -0.07705461 -0.0095414845
000020 de cd 1a bc 5e 8a 70 3d fe 0a fd bd 6f e8 1c be
       -0.009448497 0.058725707 -0.12355612 -0.15323041
000030 53 ac f8 bd 7e f6 48 be 1a d4 f1 bd 71 d7 85 bd
       -0.12142243 -0.1962528 -0.11808033 -0.06535233

stem.1.running_mean f4 [16]
000000 96 8d ae 3d af 59 98 be 34 a4 93 3e 22 f5 f3 3e
       0.08523099 -0.29755923 0.28836215 0.4764796
000010 1c bc ff bd bf 29 72 bd d0 ac fa 3e 56 db fe be
       -0.12487051 -0.059121843 0.4895997 -0.49776715
000020 2c a6 96 3e 87 ee 00 be 1c 30 4c 3d 7a bc 6a 3c
       0.29423654 -0.12590991 0.04985057 0.014327163
000030 30 e6 ad be dc 8d fe bd 04 9e 81 3e b1 f2 ae bc
       -0.33964682 -0.12429401 0.2531587 -0.021355959

stem.1.running_var f4 [16]
000000 46 87 3e 3c a3 59 83 3d e3 2d 08 3d 8b c6 43 3d
       0.011628931 0.06413581 0.033246886 0.047796767
000010 0f 2b 54 3c e1 fb f7 3c 3a a8 56 3d ad 82 5e 3d
       0.012949719 0.030271472 0.052406527 0.05432384
000020 4d e7 fc 3b 26 3d 0f 3d c7 5f a4 3c 9d 0f 94 3c
       0.007718003 0.034970425 0.020065201 0.018073851
000030 65 1f 90 3c 69 29 19 3c b9 cc 4c 3d e6 6f 22 3d
       0.017593095 0.009348252 0.049999926 0.039657496

layer1.0.conv1.weight f4 [16, 16, 3, 3]
000000 4e 39 92 bc 2a 9f bd bd 19 da e6 bc 0e 13 93 bb
       -0.01784959 -0.09258874 -0.028180169 -0.0044883555
000010 e3 d8 85 3d d6 06 39 3d e1 4e 0c be 3e 48 35 3c
       0.065355085 0.045172535 -0.13701965 0.011064587
000020 e5 10 ba 3d 84 9d 03 bd 05 bd 0d bd c0 b5 f3 bd
       0.090852536 -0.03213264 -0.03460409 -0.118999004
000030 b3 3d a0 3d 8b d2 8c bd ed 0e ae bd 2f f3 99 3c
       0.07824268 -0.068760954 -0.084989406 0.018792717
000040 d5 b2 af 3d 1c e0 19 bd 80 27 3a 3d 6b e4 c3 3c
       0.085790314 -0.037567243 0.045447826 0.02391263
000050 4a 38 00 3e c0 17 9d bc ed 9e 0a 3e c8 11 43 3d
       0.12521473 -0.019176364 0.13537188 0.04762438
000060 39 0b ee 3d e0 c8 0b 3c 9b d2 6a bd b6 3c c5 bd
       0.11623234 0.008531779 -0.057329755 -0.0963072
000070 d7 c5 e3 bd 9c a8 94 3c 13 23 25 bd 8e ab 07 3c
       -0.11121719 0.018146805 -0.040316653 0.008280648
000080 ae 95 93 3c 9e c5 72 3d cb 70 59 bd 43 dd b6 3b
       0.018015709 0.059270494 -0.053086083 0.0055805757
000090 b6 95 e1 bc f4 b3 2a 3d 3d 59 55 3c f6 55 58 bb
       -0.027537208 0.041675523 0.013021764 -0.003301022
0000a0 d1 7c cf 3d 2a 3a d0 bb 92 5a e6 3c cf 35 d8 3d
       0.10131229 -0.00635459 0.02811936 0.10557138
0000b0 0e 10 12 3d c7 58 0b 3c 5b 73 93 3d 1e cb 86 3d
       0.035659842 0.008505053 0.07199737 0.0658171
0000c0 f0 d3 6c 3d 58 6c 1e 3c 0d 05 b1 3d 9f 6e 94 3c
       0.057819307 0.009669386 0.086435415 0.018119154
0000d0 67 94 bb 3c ef 1b 1c bd 11 47 4e bd 68 a2 99 bd
       0.022897912 -0.038112577 -0.050360743 -0.0750168
0000e0 ae 99 4d bd 86 83 21 3c 19 22 0c bd 94 55 40 3d
       -0.05019539 0.009858018 -0.034212206 0.046956614
0000f0 e6 95 e1 bc ac 60 23 3b 9e de 2c bc a1 c4 b1 3d
       -0.027537297 0.0024929447 -0.010551123 0.08680082
000100 d0 42 03 be 1a 41 84 39 60 aa d5 3c aa 11 2e bd
       -0.12818456 0.00025225506 0.026082218 -0.042497315
000110 e6 ef 91 3d b5 97 3c 3d 83 11 87 bd 04 9a a0 3d
       0.07125835 0.046043117 -0.06595137 0.07841876
000120 af a2 36 bd 95 0f f6 3c 80 79 01 3d 96 ae bf 3d
       -0.04458874 0.030036727 0.031610012 0.093594715
000130 ed 04 25 3e ab 29 31 3c 1e 50 35 3c 11 ea 30 3d
       0.1611516 0.010813157 0.011066465 0.043191973
000140 32 fb c0 3b 2a 8f 11 be 8f 51 b9 bd 2e 03 07 3d
       0.00588932 -0.14214769 -0.09048759 0.032962017
000150 c8 56 7e bd eb 17 8b 3c 24 66 ff bc 00 ab 2b be
       -0.06209448 0.016979178 -0.031176634 -0.1676445
000160 62 fc 38 bd 2c e4 6a 3c e3 4c e3 3d 94 34 99 bc
       -0.045162566 0.014336627 0.11098649 -0.018701829
000170 e4 a3 ab 3d 85 8e 8c 3d 82 9b 6e 3d 17 a4 50 bd
       0.08380869 0.06863121 0.058253773 -0.05093774
000180 41 a4 18 3b 49 bc 89 3d b3 55 17 3d d0 a2 26 3c
       0.0023291262 0.06725366 0.036946964 0.010170653
000190 0b 15 94 3d 4f 82 b9 bb 5a 47 8f 3d f2 31 a0 3b
       0.07230576 -0.005661286 0.06996031 0.0048887664
0001a0 71 28 73 3d 55 1c d8 bd b0 8f a4 ba a8 3b fd 3b
       0.05936474 -0.10552279 -0.0012555029 0.007728059
0001b0 71 e9 30 bd d2 b8 7a 3d f8 46 cb 3d 93 28 6c 3d
       -0.043191377 0.061211415 0.099256456 0.057655882
0001c0 a2 0a 17 3e c0 64 0f 3e d3 0a a2 3d 42 04 77 3c
       0.1475015 0.14003277 0.07912221 0.015076699
0001d0 1b 0a e7 bb b3 88 39 bd 6c 58 ec 3c 2d 42 47 bd
       -0.007050765 -0.045296382 0.028850757 -0.048647095
0001e0 71 c9 d3 3d aa c8 32 3e da a6 9c 3c 48 85 ab 3d
       0.10341156 0.1745936 0.01912253 0.08375031
0001f0 78 49 18 3e 13 96 ee 3d df b4 ad bd 2a df 89 3c
       0.14871776 0.11649718 -0.08481764 0.016830046
000200 84 47 02 3e be 97 52 bb 74 40 d2 3c 54 c6 85 3d
       0.12722594 -0.0032133902 0.0256655 0.06531969
000210 f2 e3 64 3d ad 00 a0 3d 8c ed ae bd 18 5c 9f bc
       0.055881448 0.07812629 -0.08541402 -0.019453093
000220 8c b8 43 3d c8 0c a1 bd 85 4b c8 3d f6 5d 10 3e
       0.04778342 -0.07863766 0.09780029 0.14098343
000230 4f eb 9c 3d ac c6 84 bc 7e c3 cd bc b5 7b c7 3d
       0.07662069 -0.016208015 -0.025117632 0.09740392
000240 61 28 69 3d e2 d0 5e 3d 4b 8d 9e 3d db 47 58 3d
       0.056923274 0.054398425 0.07741793 0.0528029
000250 90 b7 22 3d 83 47 ee 3d b3 b8 9d bd 48 64 d9 bd
       0.03972584 0.116347335 -0.07701244 -0.1061483
000260 c1 f9 23 bd 86 e8 e8 bd 4d 01 0a be 47 a6 2d be
       -0.040033106 -0.11372475 -0.13477059 -0.16957961
000270 8d 1c 9b bd c8 8d 8a ba c1 60 ab bd 47 c4 ae 3d
       -0.07573805 -0.0010570819 -0.08368064 0.08533531
000280 3e 24 f1 bc 3b 86 9c bd 29 7e 00 be b5 00 9f bd
       -0.029436227 -0.0764279 -0.12548126 -0.07763807
000290 0f b0 13 be a1 fa 94 3c b7 bb f1 3b 86 1d e1 bd
       -0.1442263 0.018185915 0.0073771137 -0.10991959
0002a0 9d 30 82 bd df 50 b8 3d 81 9e fd 3c 6a d1 27 be
       -0.063569285 0.089998 0.03095937 -0.16388479
0002b0 b4 8b b0 bd 72 30 0d be dd 98 da bd 50 7b eb 3b
       -0.08620396 -0.13788012 -0.106736876 0.007186331
0002c0 49 65 a1 bc eb 23 b3 3b 1a 13 e7 3d 6f cd 36 3d
       -0.019701617 0.0054669282 0.1128294 0.04462951
0002d0 82 84 35 3d 9b d5 a1 bd 24 ed 7f bd ab 30 17 3d
       0.044315822 -0.0790207 -0.062482014 0.036911648
0002e0 bb d8 88 bc 01 d6 75 3d cd ec 0d bd 68 6f a4 3c
       -0.016704908 0.060018543 -0.03464966 0.020072654
0002f0 9e 95 8f 3c ad 66 52 3d 97 ba da 3c 13 49 1d bd
       0.017527398 0.05136745 0.026700301 -0.038399767
000300 86 e7 d1 3d 2a 88 75 bd 66 d3 fd bc 81 ef a1 3d
       0.10249238 -0.05994431 -0.030984592 0.0790701
000310 53 a4 55 3d 48 63 12 bd f7 33 22 be 93 4c 4b bd
       0.052158665 -0.035739213 -0.15840136 -0.049633574
000320 75 aa 25 be 18 0a a7 bd e0 06 05 be ed 15 58 bc
       -0.16178305 -0.08156222 -0.12990904 -0.013188821
000330 f9 fd 18 bc 50 f4 c1 bd 10 1d 07 3d 9e 7a 62 3d
       -0.009337896 -0.09470427 0.0329867 0.055292718
000340 d2 ff f2 3c fb 6f 38 bd 8a a0 5d 3d b6 c4 ae bd
       0.029663 -0.045028668 0.05410818 -0.085336134
000350 5d e3 04 bd f5 13 b2 bd 99 ee c1 bc c6 e5 29 be
       -0.032443393 -0.08695213 -0.023673343 -0.16591558
000360 0d cc 30 3c 3d 8a 1c 3d ae 55 18 3c c3 f3 9d bd
       0.010790837 0.03821777 0.009297771 -0.077125095
000370 8f af 40 3d 65 43 76 3d 6a 99 bc bd 34 b5 ab bd
       0.047042426 0.060122866 -0.09208949 -0.08384171
000380 92 4e 48 bd 62 a9 1a 3d 0a 67 4b bd d4 cf b4 3d
       -0.048903055 0.037759192 -0.049658813 0.088287026
000390 ab a6 00 bc 78 97 76 bd 6c 1c 34 3d a9 af 93 bd
       -0.007852237 -0.060203046 0.043972418 -0.07211239
0003a0 df 81 f9 bd 5e 2a 23 be 99 2e 73 bd b0 15 15 bd
       -0.12182974 -0.1593413 -0.05937061 -0.036397636
0003b0 e8 c4 e5 bd 84 5f 1d 3e ff 7f a0 3d 36 0d 2c 3c
       -0.112191975 0.15368468 0.07836913 0.010501197
0003c0 83 16 9b 3b 74 32 aa 3d 39 cf 03 3e d8 78 f2 bc
       0.004732908 0.083104044 0.12872018 -0.029598638
0003d0 f6 ec 28 3d 47 21 de 3c b7 c6 df 3d e3 a0 a3 3d
       0.04124161 0.027115477 0.10926574 0.07989671
0003e0 e4 3e cb 3d 60 1b 31 3c a8 a3 e5 bc f7 7d a0 bd
       0.09924105 0.010809749 -0.028032139 -0.07836526
0003f0 f4 98 60 3d 3b 3c ba bd b5 37 78 bd 32 9d b9 3d
       0.054833367 -0.09093519 -0.0606 0.09063186

layer1.0.conv1.bias f4 [16]
000000 70 54 97 3d 2e 0f 45 bc ed 63 0b bd 0f 4b cf bd
       0.07389152 -0.012027545 -0.034030844 -0.10121738
000010 e1 b1 b4 bd 1f ef c9 bc 7c 81 42 ba 22 34 c4 3c
       -0.0882299 -0.024650155 -0.00074198074 0.02395064
000020 99 df 13 bd 9f e7 56 3c 53 f1 f7 3b 37 3c 8d 3d
       -0.03610191 0.013116746 0.00756661 0.06896251
000030 10 d1 eb 3c e7 8d a3 3d 5a e9 83 3c f0 ff c1 bc
       0.028786212 0.0798605 0.016102482 -0.02368161

layer1.0.bn1.weight f4 [16]
000000 d3 b3 6b 3f 94 5c 83 3f 09 d1 8c 3f 8f 6c 84 3f
       0.92071265 1.0262628 1.1001292 1.034563
000010 ca 71 7e 3f 28 6c 6f 3f ee c0 6c 3f 77 55 7d 3f
       0.9939238 0.9352441 0.9248189 0.98958534
000020 b0 c8 86 3f 04 b9 8f 3f ac c2 8e 3f d4 9e 89 3f
       1.0529995 1.1228337 1.1153159 1.0751595
000030 45 bd 8a 3f 3f f4 82 3f fd 54 6f 3f 6a 9c 78 3f
       1.083901 1.0230788 0.93489057 0.9711367

layer1.0.bn1.bias f4 [16]
000000 07 22 ae bd f0 e1 fb bd b0 78 54 bc f7 69 85 bb
       -0.08502584 -0.122989535 -0.012968227 -0.00407147
000010 c3 76 a6 3b 7a df 53 bd 4b c3 1e bd 06 20 12 3d
       0.0050800755 -0.051726796 -0.038760465 0.03567507
000020 04 ee 01 bc 0c 1f 1a 3d 38 43 1c 3d a0 34 02 be
       -0.0079302825 0.037627265 0.038150042 -0.12715387
000030 22 11 30 bd 75 e4 97 bd 6b 4d 97 bd 4a c2 6b 3d
       -0.04298509 -0.074166216 -0.07387813 0.057558335

layer1.0.bn1.running_mean f4 [16]
000000 55 e4 d5 3f ac 14 a7 bf 80 49 60 be e6 19 f2 3f
       1.6710306 -1.3053184 -0.21903038 1.8914154
000010 71 b7 b4 3f 47 d8 04 bd ba df 62 c0 6e 5e 57 bf
       1.4118482 -0.03243282 -3.5449052 -0.84128463
000020 58 0c 45 3d ae b1 16 c0 d7 6a 92 3e 69 21 49 bf
       0.048107475 -2.3545947 0.28597137 -0.78566605
000030 e9 08 b6 bf 36 69 20 3f e7 4e 6a 3e 21 38 0b 3e
       -1.4221469 0.6266054 0.22881661 0.1359563

layer1.0.bn1.running_var f4 [16]
000000 4d 1a 16 3f df 4b 9e 3f e2 eb 25 3f e4 62 e6 3f
       0.5863388 1.2366904 0.64813054 1.7998929
000010 c2 fa 40 3f d8 ee 13 3f d1 ad f0 3f 49 12 39 3f
       0.75382626 0.5778632 1.8803045 0.72293526
000020 d8 6e 44 3f 1c a9 6c 3f 7f 5a 39 3f 2d 33 75 3f
       0.76731634 0.9244554 0.7240371 0.95781213
000030 48 0b 94 3f d9 8b 69 3f 33 af 38 3f 26 c0 4f 3f
       1.1565943 0.91229016 0.7214233 0.8115257

layer1.0.conv2.weight f4 [16, 16, 3, 3]
000000 1f 2a 01 be 9e 38 36 bd fb 7d 86 bd 20 fe 44 3d
       -0.12613724 -0.044487588 -0.065669976 0.048093915
000010 a8 ca 73 3d 7c 13 97 3b 48 02 9f 3c e4 95 0e 3d
       0.05951944 0.004610477 0.019410267 0.034810916
000020 42 2b 8c 3d db ff 86 3d f9 ec 93 3c 0f ab e6 bb
       0.06844188 0.06591769 0.018057333 -0.0070394347
000030 5f d1 14 3e db 35 d3 3d d0 71 3f 3d 93 cd c4 3c
       0.14532994 0.103130065 0.0467394 0.024023807
000040 3a b4 8d bd 19 29 03 be ac 5e 2d 3e 64 17 13 3e
       -0.06919141 -0.12808646 0.16930646 0.14364392
000050 a2 fa 87 3a 84 28 b8 3d ea 1d d5 bb 62 70 7b 3b
       0.0010374377 0.08992103 -0.00650381 0.0038366546
000060 b0 9e c5 3d 79 ee 0a bd 48 27 97 bd 34 25 26 3d
       0.09649408 -0.03391883 -0.07380539 0.040562823
000070 09 e7 b9 bd 66 e4 4b 3d a5 f8 59 3d a6 d6 a2 bc
       -0.090772696 0.049778365 0.05321564 -0.019877743
000080 e0 31 ce 3d 8e 26 b5 3d de 49 99 3d 90 40 0f bb
       0.10068107 0.08845244 0.07484792 -0.002185855
000090 0c 24 73 bd 60 da d4 3c 57 b3 f5 bc de 26 00 3e
       -0.05936055 0.025983036 -0.029992742 0.12514827
0000a0 cd 4d 9d 3d 09 6e 30 3c cd 01 e0 3d b0 6d 21 3d
       0.07680855 0.010768422 0.109378435 0.039411247
0000b0 b6 77 2a bd 15 a6 1e bc 76 1d 14 3d 4f 6f d4 bc
       -0.04161807 -0.009683152 0.03616091 -0.025931982
0000c0 c7 ac 65 bd 20 ed f9 3b d7 dc 64 3d 55 9e bc bd
       -0.056072976 0.0076271445 0.05587467 -0.09209887
0000d0 2b 94 06 3d 6b a5 d2 bb 0c c3 97 3b 58 aa 12 bd
       0.032856148 -0.0064284108 0.0046314057 -0.035806984
0000e0 f5 7d c1 3c 91 e8 91 3d 60 8c 23 bd 94 88 98 3c
       0.023619631 0.07124437 -0.039928794 0.018619813
0000f0 56 84 d9 3c fc 68 c3 3d 9b 39 23 bd 10 f8 db 3d
       0.02655236 0.095415086 -0.03984986 0.107406735
000100 d6 79 60 3d 10 c5 77 bd 6a 0e 4a 3c 2f 20 a4 3c
       0.05480369 -0.060490668 0.012332538 0.020034878
000110 e1 c9 33 3d 0d 58 99 3d 84 04 b4 3d 67 b0 d2 3b
       0.0438937 0.074874975 0.08789924 0.00642972
000120 8e 4d c2 bc ba 6f b5 3d b8 10 ce 3d 8d aa a7 39
       -0.023718622 0.08859201 0.100617826 0.00031979792
000130 e9 d5 df 3d c1 b1 a4 3d 46 f5 15 bd 11 ce a0 bc
       0.10929472 0.08041716 -0.036610864 -0.01962951
000140 c0 5d 58 3d 46 0d f0 3d 29 6f 1c bc c5 e6 d5 bd
       0.052823782 0.11721282 -0.009547987 -0.104444064
000150 52 d3 b4 bc 6a 6b f7 bd 0c 03 10 bb d0 f1 b6 bc
       -0.022073422 -0.120810345 -0.0021974472 -0.022332102
000160 a3 38 5f 3d 6a c8 47 3d 10 ac c2 bd aa 28 17 3d
       0.054497372 0.048775114 -0.095054746 0.036904015
000170 99 34 ba 3d ec 68 d0 3d 6a e0 ee 3d 40 54 72 ba
       0.090920635 0.10176262 0.11663897 -0.00092441216
000180 5b b1 93 bd e1 15 1d be ba ce b9 bc 34 a8 cc 3d
       -0.07211562 -0.15340377 -0.022681583 0.0999302
000190 64 28 fc 3d 43 cb 08 bd 5b d4 1b 3d 2c 2b 2c 3e
       0.123123914 -0.03339697 0.038044315 0.16813344
0001a0 35 6b b2 b9 34 8c 99 3d 16 dd 47 bb a8 43 e8 bc
       -0.0003403068 0.07497445 -0.0030496768 -0.028352574
0001b0 64 fc d7 bd 94 5e 19 bd 8e de 61 bd 46 a9 ad 3c
       -0.105461866 -0.037443712 -0.055143885 0.02119888
0001c0 79 ef df 3d c9 a6 70 bd 24 29 88 bd 98 2f ce 3d
       0.10934348 -0.05875281 -0.06648472 0.100676715
0001d0 06 c0 bb 3b 05 9f ca bb 10 dc c3 3d 1d 1e 22 3e
       0.005729678 -0.0061835074 0.09563458 0.158318
0001e0 f0 c4 08 bd de d1 b9 ba f2 c3 07 3e c7 21 dd bd
       -0.03339094 -0.0014176925 0.13258341 -0.10797458
0001f0 b0 f0 db bc 6d 50 76 3d c2 3a b0 3d d6 86 aa bc
       -0.026848167 0.060135294 0.08604957 -0.020816248
000200 c5 9d 84 bd 23 23 90 bc bc 49 16 bd 70 41 c4 3c
       -0.06475405 -0.01759488 -0.036691412 0.023956984
000210 a8 ee 89 bd 7f 7b 4a 3d 30 39 4b 3b 80 b1 29 3d
       -0.06734973 0.04943418 0.0031009428 0.041429043
000220 34 51 22 3c f0 86 7e 3d 41 c4 be 3d e3 e3 b8 3d
       0.009907056 0.062140405 0.09314776 0.09027841
000230 5a 1c 18 3c 7b f4 b3 3d 0d 92 76 3c 31 42 83 3d
       0.009284103 0.08786865 0.01504947 0.064091094
000240 75 9b dd bc ad f9 82 bd 1b b3 12 be aa 72 9e bd
       -0.027051667 -0.06395278 -0.14326136 -0.07736714
000250 7f 44 d5 bc 88 de 99 bd 8d fd 4e 3d de b4 be b9
       -0.026033638 -0.075131476 0.050534774 -0.0003637438
000260 dd 43 f2 bc 57 fd b7 3d 37 77 af 3d 14 e3 1c 3e
       -0.029573375 0.089838676 0.0856766 0.15320998
000270 12 a7 7e bc a2 69 f1 bc c2 c1 ac 3a 04 e8 d2 3c
       -0.015542762 -0.029469315 0.0013180303 0.0257454
000280 23 a5 99 3d 1f 4f 89 bd 8e 16 ad bb ac 82 6f bd
       0.075022005 -0.06704544 -0.0052822297 -0.058474228
000290 32 aa 92 3d 62 26 3f 3d 6e 1c bc bd 84 1f 79 bb
       0.071613684 0.046667464 -0.0918511 -0.003801317
0002a0 7d 0b c6 3d 06 79 7c 3c d8 00 b8 3d d6 92 d6 bd
       0.0967016 0.015409714 0.08984536 -0.104772255
0002b0 c0 f0 3a bc d8 a5 ec 3b c3 c9 39 bc b5 37 93 bc
       -0.011409938 0.0072219186 -0.011339608 -0.0179709
0002c0 ca 93 98 bc 09 f7 c4 bd 59 d2 90 bd cc 71 9d bc
       -0.018625159 -0.09617431 -0.07071371 -0.019219302
0002d0 bc 5a 8f bd a8 27 7b 3c d2 20 32 3d ee 8d e8 3c
       -0.06999728 0.015329279 0.04348833 0.02838799
0002e0 d2 d2 45 bd 37 8e d3 bc 31 14 7d 3d 0b 56 de bd
       -0.048296757 -0.02582465 0.061786834 -0.10856255
0002f0 cd d0 13 bd 82 1c 92 3d 74 76 e2 3d ff 89 c1 bc
       -0.0360878 0.07134344 0.110577494 -0.023625372
000300 29 a3 03 bc 1b 6e 1b 3d 24 7e de 3c 4b 75 95 bd
       -0.008034506 0.0379468 0.027159758 -0.072977625
000310 ad ab 1c bd dc a2 0d 3c f8 0d 83 3d 48 93 69 3c
       -0.03824966 0.008644786 0.06399149 0.014256306
000320 4f bb e9 3d df 67 63 3c ee 0d 70 bc 02 df b9 3d
       0.114126794 0.013879745 -0.014651759 0.090757385
000330 36 b4 aa 3d 8e 04 5a 3d 10 fa dd 3d d3 24 25 3c
       0.08335154 0.053227 0.10838711 0.01007958
000340 53 b1 11 bd e7 73 43 bd bd f7 02 3c f0 eb 51 3d
       -0.0355695 -0.047717955 0.007993636 0.0512504
000350 0d bb de 3b 35 20 66 3d a1 fb ca 3d 4b af de 3d
       0.0067972005 0.05618306 0.09911276 0.10873278
000360 52 06 e8 bd a6 11 2a be a0 00 02 be 5d 3b 14 be
       -0.113293305 -0.16608295 -0.12695551 -0.1447577
000370 fc 6d 13 be f4 1b 00 be 01 3b a8 bd ef 34 a3 bd
       -0.14397424 -0.12510663 -0.08214379 -0.07969081
000380 00 89 51 bd 44 ff 07 3e b4 45 67 3d fc b0 05 3e
       -0.051156044 0.1328097 0.05646296 0.13055795
000390 ff 46 b3 3d d1 9f bb 3d d8 bb 25 3e 61 64 bd bc
       0.08753776 0.09161342 0.16184938 -0.023119153
0003a0 3e 9a 91 bd ce 91 b1 bd 75 4a 84 bd 84 7b 3d bd
       -0.071094975 -0.08670388 -0.06459514 -0.04626037
0003b0 1d c5 fd 3c 87 66 35 bc f5 a7 b5 bb 0f 73 85 bd
       0.03097778 -0.011071808 -0.0055437037 -0.06516086
0003c0 f4 5a 30 bc 98 1c 4d 3b df 95 8d bd 3e 65 92 3c
       -0.010763872 0.003129756 -0.06913351 0.017870542
0003d0 ec aa 7c 3d 4f c2 16 3e 74 f9 72 3d 04 ee 43 3d
       0.06168644 0.1472256 0.05931993 0.04783441
0003e0 f5 13 ff 3d 73 5e ec 3d 72 23 29 3d f6 da ef 3d
       0.124549784 0.11541452 0.04129357 0.11711685
0003f0 6c 8a 9a 3d 6c cb a3 3d 72 24 25 3b c0 15 af bd
       0.07545933 0.07997784 0.0025198725 -0.0854907

layer1.0.conv2.bias f4 [16]
000000 57 81 87 3a ea a6 10 3d 69 8d 6b 3d 49 c1 8d bd
       0.0010338229 0.03531543 0.057507906 -0.06921632
000010 73 e3 a9 3c 1f 1c b8 bd c9 e0 34 3d b1 37 83 bd
       0.020738339 -0.08989739 0.044159684 -0.06407107
000020 5e 34 1e 3d 7a 3e 85 3d ca 7e 2d 3b c4 f1 ba bd
       0.03862416 0.06506057 0.0026473277 -0.091281444
000030 6d 91 0e bd 83 b1 d2 bc cf 70 27 3d c7 92 94 3c
       -0.034806658 -0.02571941 0.040879067 0.018136395

layer1.0.bn2.weight f4 [16]
000000 69 0c 78 3f af ce 83 3f 50 bc 66 3f ea fd 71 3f
       0.96893936 1.029745 0.9013109 0.9452807
000010 a8 fa 84 3f b3 08 83 3f 88 cb 93 3f db 25 6c 3f
       1.0388994 1.023703 1.1546488 0.9224526
000020 17 89 89 3f 32 f9 6d 3f 1b 58 8c 3f a7 c1 77 3f
       1.0744962 0.92958367 1.0964388 0.96779865
000030 b1 15 81 3f f3 74 6c 3f 13 c8 7a 3f 9e 6a 7c 3f
       1.0084745 0.9236595 0.9796154 0.98600185

layer1.0.bn2.bias f4 [16]
000000 75 5a 9a bd 76 6f cd bd e8 28 2d be 44 8b 0c be
       -0.075367846 -0.10031025 -0.16910136 -0.13725
000010 0a f1 ee 3b 0e cd ca bd 80 d2 e9 bc 5e f6 ea bc
       0.0072919177 -0.09902392 -0.028542757 -0.02868193
000020 3e 1c 46 ba a0 b1 0f be 14 d4 0c bd 37 69 97 3b
       -0.0007557309 -0.14032602 -0.03438194 0.004620697
000030 f9 41 f8 bd ec 0a 5d bc bf b3 8a bd c3 b4 ec bd
       -0.12121958 -0.0134913735 -0.06772565 -0.11557915

layer1.0.bn2.running_mean f4 [16]
000000 f7 57 85 3f f9 25 1d be c9 80 e7 3c ad 6e 02 3e
       1.041747 -0.15346517 0.028259652 0.12737532
000010 d8 08 d0 be 6e 5f 77 3c 85 cb af 3e 7a ec 3a 3f
       -0.40631747 0.015098436 0.3433496 0.73017085
000020 19 b6 4f bf b8 7f fe be 64 64 c8 3e a4 ad 7c be
       -0.81137234 -0.49706817 0.39139092 -0.24675614
000030 40 5d fe 3e 8a df a9 bd c7 42 6d bf 46 d1 55 3e
       0.4968052 -0.0829459 -0.9268002 0.20880613

layer1.0.bn2.running_var f4 [16]
000000 7c 76 c4 3e 39 76 30 3f 98 c9 14 3f a8 cc 0f 3f
       0.38371646 0.68930393 0.5812011 0.56171656
000010 58 df 18 3f 3a dc f5 3e 2d 07 c0 3e 85 11 1e 3f
       0.59715796 0.48019582 0.37505475 0.6174548
000020 d8 8f 0a 3f f2 a8 e4 3e ee 31 02 3f 1c e0 06 3f
       0.5412574 0.44660145 0.50857437 0.52685714
000030 7e 3a af 3e 23 e9 cb 3e 31 13 2d 3f 89 17 c4 3e
       0.34224313 0.39826307 0.6760741 0.38299206

layer2.0.conv1.weight f4 [32, 16, 3, 3]
000000 b7 c5 3e bd 05 64 63 3c 86 21 b0 3d 53 0e ee 3b
       -0.046575274 0.013878827 0.08600144 0.007264891
000010 63 34 08 3e c8 32 1f 3d 5f 10 a0 3c 60 e1 d9 bc
       0.13301234 0.03886679 0.019539056 -0.026596725
000020 a1 13 97 bd bf 69 c6 3c 6d 11 ae bd a5 cf d8 bd
       -0.07376791 0.024220346 -0.084994175 -0.1058648
000030 69 92 d5 3b 0f 50 45 bd ba 65 af bd de 89 2a bd
       0.0065176976 -0.048172053 -0.08564325 -0.041635387
000040 a4 68 cf bd f9 a0 d5 3b 80 66 4b bd 40 ad 82 bd
       -0.101273805 0.0065194336 -0.0496583 -0.06380701
000050 f2 1f 31 3d b1 20 86 3d 54 7a a6 3d d9 1c 8d 3d
       0.043243356 0.06549204 0.08128801 0.06890268
000060 00 c8 98 3c d1 81 da 3d 2c d7 f4 bc f8 5b 69 bd
       0.018650055 0.10669292 -0.029887758 -0.056972474
000070 28 42 60 3d 77 49 0a bd 85 c7 5b bd 83 6c a5 3d
       0.05475059 -0.033761468 -0.053657074 0.080773376
000080 7e b1 dd 3c c8 c6 3a 3d cf 68 16 3d c2 55 a5 bc
       0.027062174 0.04559973 0.036721047 -0.020182494
000090 bf f3 8b 3d 8a c1 f6 3d 8d 62 57 3b 2a 82 75 3d
       0.068336 0.120486334 0.0032865137 0.059938587
0000a0 e1 57 47 3c f4 6a 9f bd 3f 82 5d bc 1a f6 23 3d
       0.012166948 -0.077840716 -0.013519823 0.040029623
0000b0 d9 06 32 3a dc 2f 15 3c 6f e4 df 3d 1c 23 13 3e
       0.00067911815 0.009105649 0.10932242 0.14368862
0000c0 91 2b 1a 3d 4a d3 17 3d ed a4 8e 3d 53 0c 14 3e
       0.037639204 0.037066735 0.06965051 0.14457826
0000d0 c7 ef 33 bd fd bb 8b bb fc 27 81 3d c9 b0 db bd
       -0.04392984 -0.0042643533 0.063064545 -0.107270785
0000e0 fc a4 31 3d 5e f2 9e 3a 10 e1 21 be 23 0a e7 bd
       0.043370232 0.0012126674 -0.15808511 -0.1128123
0000f0 63 17 30 bd 6d 38 2c be c9 91 f2 3d 6e ca 20 3d
       -0.042991053 -0.168184 0.118442126 0.039255552
000100 d4 1f 33 3d 6d 13 3f 3d 6b d1 22 3d 69 41 a5 bc
       0.043731526 0.046649385 0.039750498 -0.020172792
000110 ca c3 cf bc 91 26 49 3d 68 bd 0d bd 4e ce 83 3d
       -0.025361914 0.049109045 -0.03460446 0.06435834
000120 b7 35 2f bd 62 46 b2 3d 2b 1c 8e 3d bc a5 4c 3d
       -0.042775836 0.08704831 0.06938966 0.049962744
000130 2e 8b b4 bd 5b 46 67 3d 54 bd 84 bc b0 b6 dc 3c
       -0.08815609 0.05646358 -0.01620356 0.026942581
000140 0e fe 7d bd 24 50 29 bc 99 f5 28 3d 3f 90 2a bd
       -0.062009864 -0.010334048 0.041249845 -0.04164147
000150 af 6b 88 bd 48 b8 ce bd d1 bd 81 bd a0 37 8a 3b
       -0.06661164 -0.100937426 -0.06335033 0.004218057
000160 31 5f 4e 3d 58 da b5 3d 38 dd 2e 3d aa c4 e1 3a
       0.05038375 0.088795364 0.04269144 0.0017224748
000170 94 24 b3 bd 7e 2c ec bc 28 8c f1 3c c0 21 79 3c
       -0.08747211 -0.02882981 0.029485777 0.0152058005
000180 ed 45 68 3d ca 7f 9b bd 9c 9a 5b bc 57 b6 90 3d
       0.05670731 -0.07592733 -0.013403561 0.070660286
000190 a3 8c 53 b9 cb 41 70 3d 7f 6d 03 bb cc a2 31 3d
       -0.0002017492 0.058656495 -0.0020054278 0.043368146
0001a0 c7 33 d6 3b 39 2f 26 3d 19 4c 0e be 3c 38 c1 3d
       0.006536934 0.04057238 -0.13896216 0.09434554
0001b0 35 6f 8b 3d d2 26 64 bd 6f 8b 79 3d 5d 17 84 3c
       0.068083204 -0.055701084 0.06092399 0.016124422
0001c0 e3 47 83 bd 28 81 a1 bd df 0f c2 3c 02 f0 f2 bd
       -0.06410196 -0.07885963 0.023689209 -0.11862184
0001d0 87 de 3c 3d 9c a4 06 3d e9 9f 5a bd af 5f 6b 3d
       0.046110656 0.032871827 -0.05337516 0.057464298
0001e0 14 6e 2b 3c a1 e7 6b bd 9a 83 79 3d 4f 20 bd 3d
       0.010463256 -0.057593945 0.06091652 0.09234678
0001f0 27 37 29 3b 46 68 36 bd 43 6d ee bd 83 56 8b bc
       0.0025820227 -0.044533037 -0.11641934 -0.017009025
000200 ed 2a e7 bd 35 b8 cc 3d 18 75 3c bd ab eb 11 3e
       -0.11287484 0.09996072 -0.046010107 0.14250056
000210 68 82 1f 3d 0e 29 f3 3d a6 22 08 3e 5e d5 ed bd
       0.038942724 0.11873065 0.13294467 -0.11612962
000220 a3 cf 07 3e 5e 6e 21 3d 70 77 d8 bd 6a bb dd bc
       0.13262801 0.039411895 -0.10569656 -0.027066905
000230 13 41 08 be c2 aa 6e bd 62 c5 7e bd c8 e2 f7 bd
       -0.13306074 -0.058268316 -0.062199958 -0.12103802
000240 f4 fa 79 bd 11 03 f1 bc bd 26 18 3d 9a 32 c7 bd
       -0.061030343 -0.029420407 0.03714632 -0.09726448
000250 de f8 c2 3d 9b e6 ce 3d 6c d3 bc 3d d2 6e 08 3e
       0.09520124 0.10102578 0.09220013 0.13323525
000260 cd 2f 11 be 2b c8 ce bd e5 3d 00 be 81 28 01 be
       -0.14178391 -0.10096773 -0.12523611 -0.12613107
000270 06 d9 1e bd 87 6d 0b be 2b 56 0b 3d 54 8d d4 3b
       -0.03878119 -0.13616 0.034017723 0.006486574
000280 87 74 c8 bd a6 e2 18 bd b5 9d 9e 3a 36 12 e3 3d
       -0.09787851 -0.037325524 0.0012101444 0.11087458
000290 47 53 78 bd c8 01 a1 3d ed e4 43 3b fa 20 bf bd
       -0.060626294 0.07861668 0.002989109 -0.09332462
0002a0 f2 f0 23 bd 24 10 5f 3d 10 a0 10 3d c3 84 58 bd
       -0.040024705 0.054458752 0.035308897 -0.052860986
0002b0 9a 53 78 3d c2 c1 69 3d 1b 3a e8 3b 60 d3 73 bd
       0.060626604 0.057069547 0.007087005 -0.059527755
0002c0 d5 56 7d bd 0a bc b0 3c ef e5 fa bc 71 a9 4f bd
       -0.061850388 0.021574039 -0.030627219 -0.0506987
0002d0 30 ad 95 bc fd f5 a3 3b b5 86 a5 bc 03 3f 2c bd
       -0.018271059 0.0050036893 -0.020205835 -0.04205228
0002e0 ab 21 c3 bd 9e c0 19 bc 74 2d 38 3d ce 3d 93 bd
       -0.09527906 -0.009384302 0.044965222 -0.07189523
0002f0 37 54 58 bc 50 17 3a 3d 25 04 92 3d af a9 50 3d
       -0.013203672 0.04543239 0.07129697 0.050943073
000300 46 fe 0f bd 22 4d a2 bd a1 cf f2 3d f7 3f 84 bd
       -0.035154603 -0.07924868 0.11856008 -0.06457513
000310 18 1f 85 3d f8 00 38 3c 46 26 dc bd 75 7a 55 3d
       0.06500071 0.0112307 -0.107494876 0.052118737
000320 fa 3f e6 bd 72 f0 96 bd c1 89 2e 3d 23 ea 8c 3b
       -0.11242671 -0.0737008 0.04261184 0.004300372
000330 9e 30 e2 bd d6 e6 dd 3d 32 9c 08 be ef de 83 3d
       -0.11044429 0.10835044 -0.13340834 0.064390056
000340 b4 c0 ed bc 5d 74 fd 3d 86 06 b6 bc ce 95 96 bd
       -0.029022552 0.1237571 -0.022219907 -0.07352792
000350 b0 b1 d4 3d 6f 81 5d 3d ac b5 d0 3d c1 df 46 3d
       0.10385454 0.054078516 0.10190901 0.048553232
000360 2e 04 80 bc 22 ae 62 3d 7b 27 4f bd 63 77 23 3d
       -0.015626993 0.055341847 -0.05057476 0.039908778
000370 d8 56 37 3a 37 e2 1a be 30 63 af 3c f3 87 a0 3d
       0.0006993837 -0.15125357 0.021409601 0.0783843
000380 fb 6c 1d 3c 16 9b 44 bd d2 f9 fd 3d a1 54 b9 bd
       0.0096085025 -0.047999464 0.12401165 -0.09049345
000390 bd 99 fa 3c 61 e8 af bd b3 8b c2 3d 48 83 32 bd
       0.030590886 -0.08589245 0.09499302 -0.04358223
0003a0 cf ec 40 bc 19 60 a3 bd 2c 90 b8 3c a2 eb fe 3c
       -0.01177521 -0.079773135 0.022529684 0.031118218
0003b0 7e 75 86 3c 16 b3 e8 bc a8 fb d9 bd c1 6f 36 3d
       0.016413447 -0.028405707 -0.10643703 0.04454017
0003c0 3c fe a9 bd 80 59 86 38 0f 73 82 bd fc dd 98 bd
       -0.083004445 6.4062886e-05 -0.06369602 -0.07464215
0003d0 a7 82 88 bd df 1b ab 3d bb d1 1f bd 35 bf 96 3d
       -0.06665545 0.08354925 -0.039018374 0.073606886
0003e0 f4 85 a3 3d 66 96 09 3e 97 f5 67 3d f4 9a fa bd
       0.07984534 0.13436279 0.056630697 -0.12236586
0003f0 15 5e 57 3c 31 c1 33 bc c2 14 50 bd 2b 2d 15 bd
       0.0131449895 -0.010971353 -0.050801046 -0.03642003

layer2.0.conv1.bias f4 [32]
000000 c6 e9 87 bd dc c7 97 bd fa dd 62 bd 67 6d 00 3b
       -0.066363856 -0.07411167 -0.055387475 0.001959646
000010 b0 fc 9b bd 9e ec 96 bd 52 59 67 3d cc aa f9 3b
       -0.07616556 -0.0736935 0.056481667 0.0076192375
000020 b2 73 ab 3d f7 bf 3b 3d 36 cd 0e 3c fd a0 28 bd
       0.083716765 0.04583737 0.008715918 -0.041169155
000030 a7 5d ee 3c 24 70 84 3d fa 86 73 bd dc 77 ea bc
       0.029097391 0.064667016 -0.059454896 -0.028621607
000040 48 58 8c bc ea 65 96 3c 2f 8d a1 3d 9a 1f ce 3c
       -0.01713194 0.018359143 0.07888257 0.025161553
000050 eb e3 4c bd 20 95 bd 39 b4 6d 25 3d 18 c4 80 bd
       -0.050022047 0.00036159996 0.040387824 -0.06287402
000060 6c 03 8c 3d 16 f8 1c 3d a4 d5 e2 bb 3a 47 88 3d
       0.0683659 0.03832253 -0.0069224406 0.066542104
000070 29 6c 57 3d 72 4a a8 bc 89 32 dd 39 c7 db 15 3d
       0.052593384 -0.02054331 0.00042190056 0.03658655

layer2.0.bn1.weight f4 [32]
000000 0a d2 77 3f 1a fe 86 3f 79 43 86 3f d0 d3 6e 3f
       0.9680487 1.0546296 1.0489341 0.9329195
000010 66 82 7a 3f 2b e5 6c 3f fc 64 84 3f c9 f1 75 3f
       0.9785522 0.9253718 1.0343318 0.9607206
000020 c3 c2 80 3f 38 fc 6b 3f ad 93 85 3f 54 23 7b 3f
       1.0059437 0.9218173 1.0435692 0.9810078
000030 7a 37 90 3f ce a2 8a 3f 09 ab 70 3f 75 43 8a 3f
       1.126693 1.0830934 0.9401098 1.0801836
000040 bf ac 6f 3f 22 d1 81 3f e4 45 74 3f a4 2e 82 3f
       0.93622965 1.0141947 0.95419145 1.0170484
000050 13 1a 7e 3f 15 5f 79 3f f0 06 82 3f b3 e4 8c 3f
       0.99258536 0.9741071 1.0158367 1.1007293
000060 7a de 72 3f 53 cf 70 3f d7 4f 8b 3f 6c ad 7a 3f
       0.9487072 0.9406635 1.088374 0.9792087
000070 57 e1 8a 3f 51 8b 85 3f e5 d4 7d 3f 49 0a 7e 3f
       1.0850018 1.0433141 0.99152976 0.99234444

layer2.0.bn1.bias f4 [32]
000000 49 91 91 bd 68 d1 a5 bc 08 69 ad 3c 1b f3 87 bd
       -0.07107789 -0.020241454 0.021168247 -0.066381656
000010 8f d3 12 3d a1 d4 7a bd 16 83 25 bb a2 42 4e bd
       0.03584629 -0.061237935 -0.0025255135 -0.050356515
000020 b9 d7 45 bb e0 d2 29 bd 2a 34 35 3d c8 51 1a 3d
       -0.0030188395 -0.04146087 0.0442392 0.03767565
000030 f3 1b e5 3b 8d 32 3a bd d7 b0 cb bd ed e9 99 bb
       0.006991857 -0.045458365 -0.09945839 -0.0046970756
000040 5d 07 fd bc 43 d3 60 bd 1c e1 53 3b 17 63 04 3c
       -0.0308873 -0.054888975 0.003233022 0.0080802655
000050 85 21 b0 3d e1 ac cd bd 1a 85 ba 3b f4 62 f6 3c
       0.08600143 -0.1004274 0.0056921365 0.030076481
000060 e0 7a d5 bc b9 49 c7 3c 64 36 af 3c 2b 5d 2e 3c
       -0.026059568 0.024327146 0.02138824 0.01064233
000070 13 e8 89 3d c6 46 85 3d 94 73 8f bd fd 07 4a bd
       0.06733718 0.065076396 -0.07004467 -0.049324024

layer2.0.bn1.running_mean f4 [32]
000000 d0 60 c2 3e 01 0a e6 bc f7 82 1e bf 26 2e c0 3f
       0.37964487 -0.028080942 -0.61918586 1.5014083
000010 57 0c 51 bf a9 e6 79 3e e7 30 e3 3e 94 d4 72 3e
       -0.81659454 0.24404396 0.44373247 0.23713905
000020 70 6a 95 3f 15 d2 d3 3f d8 fc 6f 3f bb 46 16 3f
       1.1673107 1.6548487 0.93745184 0.58701676
000030 45 a9 92 bf 08 5d 1d bf 91 00 78 3f 64 fa 44 be
       -1.1457907 -0.6147008 0.96875864 -0.19236141
000040 2c cf b0 bf e8 de 52 be a5 6b 9f bf 67 2e 9c 3f
       -1.3813224 -0.20592844 -1.2454726 1.2201661
000050 e6 61 d9 bf a1 89 a8 3f c9 8f 8c bf 47 c1 dc bf
       -1.6983001 1.3167001 -1.098138 -1.7246484
000060 5f e8 c0 be fe 46 e3 3d 45 ba 15 bf 1e ad 9e 3e
       -0.37677285 0.11097525 -0.5848735 0.30991453
000070 f4 a4 c4 be 44 7f d6 be 5b 24 17 3f ac 50 2a bf
       -0.384071 -0.4189397 0.5903985 -0.66529346

layer2.0.bn1.running_var f4 [32]
000000 c9 9f c7 3f ce 24 8f 3f a4 87 41 40 03 5e b0 3f
       1.5595638 1.1183107 3.0239038 1.377869
000010 04 00 25 40 bf 3d d2 3f c2 55 f1 3f d9 eb c3 3f
       2.578126 1.6425093 1.8854296 1.530635
000020 4d f1 95 3f bd f2 b9 3f 2f 0e ca 3f c2 bf ab 3f
       1.1714264 1.4527203 1.5785578 1.3417895
000030 98 3f dd 3f 7f df ae 3f 4b 50 8e 3f 51 1a a3 3f
       1.7285032 1.3661956 1.1118253 1.2742406
000040 e5 df 98 3f 48 13 a2 3f 03 8d b1 3f f6 7f af 3f
       1.1943327 1.2662134 1.3871158 1.3710926
000050 b3 35 0b 40 8e 7a a4 3f b9 47 e9 3f f9 39 ab 3f
       2.1751525 1.2849901 1.8225013 1.3377067
000060 b5 fa 0c 40 07 3b bc 3f b4 c9 0b 40 d3 44 e0 3f
       2.202802 1.4705514 2.184186 1.7521003
000070 b9 3f c1 3f 27 d3 88 3f fe f5 a6 3f 94 b6 93 3f
       1.5097572 1.0689439 1.3043821 1.1540093

layer2.0.conv2.weight f4 [32, 32, 3, 3]
000000 5c 19 aa bb d4 2f 0e bd 31 59 d1 bb 0d af ae bc
       -0.0051910114 -0.03471358 -0.0063888063 -0.021323705
000010 8a 35 ff bc d4 de cc 3c 1a 65 3e bd 14 12 17 3e
       -0.03115346 0.025008596 -0.046483137 0.1475299
000020 53 c2 2e 3c d5 b5 11 be 63 76 0a 3d 43 de 6b bd
       0.010666448 -0.1422952 0.03380431 -0.057585012
000030 57 fc a6 3c 6e 84 86 bc 81 12 f4 3b 70 b8 85 bd
       0.020383997 -0.01642057 0.007448495 -0.06529319
000040 f9 f1 68 3d c9 53 01 bd 63 0e b7 bc 37 65 d7 bd
       0.056871388 -0.031574044 -0.022345727 -0.10517352
000050 ca 4c dc bd 66 15 1e 3e 57 cd 8f bc c5 26 44 3c
       -0.10756834 0.1543785 -0.017553968 0.011972134
000060 9a d1 29 3e e3 8e 08 bd 85 f7 ba bd 48 08 be bd
       0.16583863 -0.033339392 -0.09129242 -0.09278923
000070 ff f0 4c bd b2 96 91 3d ad 0d 1e bc 1a d5 b1 3d
       -0.05003452 0.07108821 -0.009646815 0.08683224
000080 a8 4f 5f bd c3 02 b6 3b d9 91 9f 3c e2 76 8a bc
       -0.054519325 0.0055545284 0.019478725 -0.01690239
000090 d0 94 93 3c 99 2e 0f bc d4 1c d8 3d eb 56 a7 bd
       0.018015295 -0.008739137 0.105523735 -0.08170875
0000a0 6c e7 9e 3d 51 fe 13 bc e7 85 23 3d 84 31 32 bd
       0.07758984 -0.009032802 0.03992262 -0.043504253
0000b0 14 a9 40 3d 31 e3 1b bd 2a d3 5d bd 0d 9d 1a 3d
       0.047036245 -0.038058463 -0.05415646 0.03774743
0000c0 a9 8c a1 3d aa 2a fd 39 f0 fb c4 3d 05 5b 9c 3d
       0.07888157 0.00048287708 0.09618366 0.07634548
0000d0 f3 e9 2a bd b6 d3 c6 3c 19 36 a7 bd bf e8 2b 3d
       -0.041727018 0.024270874 -0.08164615 0.04197001
0000e0 1a 96 94 bc 98 95 1c bd e6 47 47 bd 30 2b f7 bb
       -0.01813798 -0.0382286 -0.048652552 -0.00754299
0000f0 27 7b bd bd 11 a9 ea 3d 62 29 86 bc 0a 46 29 3d
       -0.09252005 0.11458028 -0.016377155 0.04132656
000100 c3 70 a8 ba 05 55 9e 3d 3b 3b 9c 3c f5 be c3 3c
       -0.0012850988 0.0773106 0.019071212 0.023894766
000110 65 6f f4 bc 11 46 78 bb 24 e0 44 3c 15 cd 97 3c
       -0.029838273 -0.003788356 0.01201633 0.018530408
000120 d9 1d 2d 3d 89 e3 23 bd d4 81 e6 3b 56 c8 da 3d
       0.042264793 -0.040011916 0.0070345197 0.10682742
000130 c1 37 46 3d 74 7b 57 bd 33 e4 05 3c 7f 18 c8 bd
       0.048393015 -0.05260797 0.008172083 -0.09770297
000140 fa 11 b8 bb 00 4e df 3a 9f 2b f9 ba 82 62 93 3d
       -0.0056173773 0.0017036796 -0.0019010192 0.07196523
000150 91 0c 46 ba ac 54 ee bc cc 34 76 3d 77 88 c7 bd
       -0.0007554973 -0.02909311 0.060108945 -0.097428255
000160 3f 82 6f 3d b6 33 b4 bc af c5 a3 bd ce fb 7c 3c
       0.05847382 -0.021997314 -0.079966895 0.015440894
000170 44 02 92 bb 08 4a 54 3b 61 fc ee bd 44 6f a7 bb
       -0.0044558365 0.003239276 -0.11669231 -0.0051096994
000180 ae d7 34 3d 3a 3b f1 3d da cc 68 bd 61 c6 ef 3d
       0.044151 0.11778875 -0.056835987 0.1170776
000190 17 80 f4 bc 87 92 15 3e d4 9e d2 3d 78 3b 4b bc
       -0.029846234 0.14606677 0.102842 -0.012404315
0001a0 28 82 da 3c 47 80 36 3d a6 2f 47 3d 1d d0 72 3d
       0.026673391 0.04455593 0.048629425 0.059280504
0001b0 4a 28 c3 3d 20 bb 60 3d 11 0d 92 3d ca 26 62 bd
       0.09529169 0.054865956 0.071313985 -0.055212773
0001c0 e1 10 4b 3d c8 4f c3 bb db be 01 bd 1e 94 86 bd
       0.049576644 -0.0059604384 -0.031676155 -0.0657122
0001d0 53 e0 8b 3c 9f 37 2f bd eb 91 05 3d eb fa 0e bd
       0.01707474 -0.042777654 0.03260986 -0.034907263
0001e0 a7 a0 7a 3d f8 a0 f7 3d 5c 3d a4 b9 af 5e 27 bd
       0.061188366 0.12091249 -0.00031326234 -0.04086178
0001f0 01 b9 10 be a8 32 f5 bc 84 c1 59 bd 47 2c d5 3c
       -0.14133073 -0.029931381 -0.053163067 0.02602209
000200 cf 06 1a 3d 6d 13 2a 3d 20 05 58 3d 7f 92 12 bd
       0.03760415 0.041522432 0.052739263 -0.03578424
000210 e1 e3 43 3c ff 64 88 bc 70 ab 6d bd 27 e6 f1 3c
       0.011956186 -0.016649721 -0.058024824 0.02952869
000220 f7 56 cd bd 3e 49 9a bc a2 17 8f 3b c0 63 8d bd
       -0.10026353 -0.018833753 0.004366831 -0.069037914
000230 79 f3 b6 bc 94 44 ec 3c 9c b7 a3 ba 0a b3 01 3d
       -0.022332894 0.028841294 -0.0012490633 0.031664886
000240 f1 fb dc 3d 50 f9 34 bc d1 90 77 3d c6 0d b9 3c
       0.107902415 -0.011045769 0.060440842 0.022589575
000250 2d 5d b5 3b c3 13 e5 3c da 00 18 3d 35 a9 87 3b
       0.005534789 0.027963525 0.037110187 0.004140044
000260 33 d6 49 3d ad 9b d3 bd 5b bb a1 3d f9 dc 51 bc
       0.049276542 -0.10332427 0.07897063 -0.012809032
000270 0d 75 17 bc 06 8e 0f 3d 91 d2 8b 3c 87 1b e3 bd
       -0.009244216 0.035047553 0.01706818 -0.11089235
000280 14 6d 02 bd cf e5 8c bd 06 64 91 3c 8f 0d f1 3d
       -0.031842306 -0.0687977 0.01774789 0.11770164
000290 cb 8f dd 3c b6 70 b2 bc 10 95 a4 bb b3 aa ed 3c
       0.027046105 -0.02178226 -0.0050226524 0.02901206
0002a0 b0 6e d8 bd d9 a4 8f 3c 25 ab aa bd 6c c7 d4 bd
       -0.10567987 0.01753466 -0.083334245 -0.10389599
0002b0 55 9b 2a 3d 3e 82 52 bd fa fa d7 bc df 37 a7 3d
       0.041652042 -0.05139374 -0.026364792 0.081649534
0002c0 7a c9 1b be cf a2 c4 bc b0 63 61 3d 5b d4 fd bd
       -0.15213576 -0.024003414 0.05502671 -0.12394019
0002d0 86 e5 42 bd d6 b3 f9 3d 62 ff f0 bc 90 2b c2 3c
       -0.04758217 0.12192504 -0.029418651 0.023702413
0002e0 0b 88 7d bd 5f 01 f6 3b 6a 3d a5 bc 27 28 07 3c
       -0.06189732 0.0075074877 -0.020170886 0.008249319
0002f0 ea cb 8c bd bc ec d2 bd 0e d1 14 bd 08 55 c1 bd
       -0.06874831 -0.1029906 -0.036332183 -0.094400465
000300 89 90 91 bc 11 bb c9 3c 22 72 93 3c 20 a3 f3 3c
       -0.017769115 0.024625333 0.017998759 0.02974087
000310 e6 0b e1 bb 90 08 3f bd df 1a 3e bd 06 33 e1 ba
       -0.0068678735 -0.046639025 -0.046412345 -0.0017181344
000320 a5 b4 fc bd 59 8d 86 bd 01 4e 80 bd fe 46 a2 bd
       -0.12339143 -0.06569929 -0.06264878 -0.07923697
000330 3b 1e 4b bd d6 0c c4 bd ae 37 1d be 1f f8 cc bd
       -0.049589377 -0.09572761 -0.15353271 -0.10008263
000340 c3 e5 65 3d 6a 08 a4 bc 6f ca f8 bc 4a 67 83 3b
       0.05612732 -0.020023543 -0.030369965 0.0040101158
000350 ee d0 c1 bd 36 6d 06 be eb 94 2b bd fc 98 fd bc
       -0.09463678 -0.13127598 -0.041890066 -0.030956738
000360 81 2c 54 3d 5b 7f 3c bd 27 14 87 bd 90 c0 89 3c
       0.051800255 -0.046019893 -0.06595641 0.016815454
000370 06 c8 83 bc 5f b9 b8 bc f5 87 d7 3d fa 06 4a 3c
       -0.01608659 -0.02254933 0.105239786 0.012330765
000380 44 f7 a5 bc 50 75 e1 3c 68 d4 06 3d 90 ac a7 bc
       -0.020259507 0.02752176 0.03291741 -0.020468026
000390 af 05 8b bc 5f ab bd 3d cc 8a ac 3b 3c 4d d9 3d
       -0.016970484 0.09261202 0.0052655693 0.106104344
0003a0 25 08 90 3d 98 7e c4 3c 2e 7b 0a 3e 0e fa 20 3e
       0.070328034 0.023986146 0.13523552 0.15720388
0003b0 be 95 b0 3d f4 21 12 3e 50 5e c8 3d bb 09 52 3d
       0.08622311 0.14270765 0.09783614 0.05127881
0003c0 9e 58 0f 3d 7d e6 0d 3d c3 64 9c bd ad f2 cc bc
       0.03499662 0.03464364 -0.07636406 -0.02501806
0003d0 29 89 82 3d 1a 68 52 bc f4 f9 51 bd bf 69 bc bd
       0.063738175 -0.012842203 -0.051263765 -0.09199857
0003e0 b9 70 54 bd 14 9f a6 bd cb ab 8e 3d 98 d9 2f 3d
       -0.051865313 -0.081358105 0.06966361 0.042932123
0003f0 4f 73 fb bd 7b bd 97 3d 0e dd c4 bc 12 db ce bd
       -0.12277853 0.074091874 -0.024031188 -0.10100378

layer2.0.conv2.bias f4 [32]
000000 70 66 5e bd 1e f6 4c bd 9a 3c 50 bd f8 d3 62 3d
       -0.05429691 -0.050039403 -0.050839044 0.05537793
000010 25 3d af bc 14 35 fa 3a 60 9e 55 bc a4 4c 2d 3d
       -0.02139146 0.0019089305 -0.013038248 0.04230942
000020 6e 88 19 3d 16 14 31 bd 61 fb 56 3d 36 8d 3d bd
       0.037483625 -0.043232046 0.052485827 -0.046277247
000030 5f d6 2f 3d b0 7d ac bc 64 4b 5a 3d 45 0e dc bc
       0.04292905 -0.021056026 0.053294554 -0.026862273
000040 d1 b1 86 bd 71 a8 3a 3c b4 b3 6c bc aa 25 f6 3c
       -0.065768845 0.011392699 -0.014447141 0.030047256
000050 8f 12 19 bd f0 6e 86 3c 54 99 b2 3c 45 34 24 bd
       -0.037371214 0.016410321 0.021801628 -0.04008891
000060 e2 00 e2 3c 06 d8 0d 3d 98 7c 0a bd ac 2e b9 bb
       0.027588312 0.034629844 -0.033810228 -0.0056513157
000070 f3 84 15 3d 02 37 0d 3d 45 04 a1 bc 35 66 62 bd
       0.036503743 0.034476288 -0.019655356 -0.055273253

layer2.0.bn2.weight f4 [32]
000000 48 4b 93 3f 0c c5 82 3f 1d 4e 80 3f 9b c7 86 3f
       1.1507349 1.0216384 1.0023838 1.0529665
000010 a1 26 79 3f c2 04 82 3f 73 3f 7f 3f d9 c2 81 3f
       0.9732457 1.0157702 0.9970619 1.0137588
000020 f5 d5 88 3f 56 7b 75 3f fa 3e 7c 3f 99 4e 8a 3f
       1.0690295 0.9589132 0.98533595 1.0805236
000030 1b 18 7f 3f 90 32 77 3f 80 64 87 3f 12 1b 6f 3f
       0.9964616 0.9656153 1.0577545 0.9340068
000040 ef b6 83 3f 91 ce 7c 3f f2 2e 8a 3f 7c 0c 8c 3f
       1.0290202 0.98752695 1.0795577 1.094131
000050 ec 1b 8e 3f c1 1e 6c 3f 13 f2 7f 3f 70 b9 85 3f
       1.1102271 0.92234427 0.9997875 1.0447216
000060 75 c7 84 3f 01 38 81 3f 87 b4 87 3f 54 f7 81 3f
       1.037337 1.0095216 1.0601968 1.0153604
000070 f1 81 84 3f c8 03 6b 3f cb bd 89 3f c6 46 6d 3f
       1.0352155 0.91802645 1.0761045 0.92686117

layer2.0.bn2.bias f4 [32]
000000 ba b9 45 bd 9d 33 48 bd 40 aa 04 3d 25 46 ad bc
       -0.048272826 -0.048877347 0.032388926 -0.021151612
000010 81 4e 78 bd cb b7 80 bc ce 08 a7 bc 38 8a d9 3c
       -0.060621742 -0.01571264 -0.02038994 0.026555166
000020 bb b7 81 bc 99 c7 83 3c 5c f7 4d bc d7 15 34 3d
       -0.01583468 0.016086387 -0.012571182 0.04396614
000030 b8 62 98 bd 19 0d e8 bd 81 18 85 bc db 6d 8b bc
       -0.07440704 -0.11330623 -0.016247036 -0.017020157
000040 a7 83 d2 3d 21 b0 85 3d a0 b6 2d 3c d2 70 dc 3d
       0.10279017 0.065277345 0.010602623 0.10763706
000050 5b 35 db bc 29 d9 8b bd e7 59 8b bd e0 88 b1 bb
       -0.02675884 -0.068285294 -0.06804257 -0.005417928
000060 9d 7d 88 bd fb e1 04 bc 5d 12 b5 3d 4e 3e 7a 3b
       -0.06664584 -0.008110519 0.08841393 0.003818411
000070 39 e9 8f bb 43 de 90 bd 6c cd 69 3d a1 ee 67 bd
       -0.004391816 -0.07073643 0.05708067 -0.05662406

layer2.0.bn2.running_mean f4 [32]
000000 f3 dc cf be a8 8f ab bf 99 d7 cd 3d 87 13 80 bf
       -0.40598258 -1.3403215 0.100508876 -1.0005959
000010 d9 59 f9 be 48 80 9f 3e 5f 2c 2d bf d8 ce 33 3d
       -0.4870136 0.31152558 -0.6764583 0.043898433
000020 22 39 48 be 19 21 8e be f4 95 9a 3e 0c 31 cc 3e
       -0.19553044 -0.27759627 0.3019253 0.3988117
000030 02 6b 1c bf 3d a4 0a 3e 4f ad 71 3c 10 f3 8c bf
       -0.6110078 0.13539214 0.014750793 -1.1011677
000040 49 28 80 bf 53 5e ca 3f 2d a0 19 bf 8f c3 ce 3e
       -1.0012294 1.5810035 -0.60010034 0.40383574
000050 42 d7 11 bd b4 2d 67 be 25 2b b2 be 70 2e dc bf
       -0.035605676 -0.22576028 -0.34798542 -1.7201672
000060 31 31 1f bf 86 96 2d 3f ff 5c 59 bf 38 c2 ef 3e
       -0.62184435 0.67807806 -0.84907526 0.46827865
000070 28 96 0d bf 3c 70 95 bc fe ad 1b 3f 56 6c e1 3e
       -0.55307245 -0.018241994 0.60812366 0.44027966
