ml/models/resnet18_best.pth (torch, 411870 bytes, 56 tensors)

stem.0.weight f4 [16, 3, 3, 3]
000000 dd db 3c 3d ed 27 42 3d d9 ba f0 bc 03 47 b5 bc
       0.046108115 0.047401357 -0.02938597 -0.022128588
000010 a4 e9 63 3e 19 23 0e bd 81 fb 3a bd 43 fa 9e bd
       0.22257096 -0.03470144 -0.04565001 -0.077625774
000020 1d b3 1f be 40 22 19 bb 91 06 5b 3e 10 7c ea 3d
       -0.1559567 -0.0023366362 0.21389224 0.11449444
000030 99 1b 99 bd 5a fe 64 3e 54 40 14 bd bf 9f 28 3e
       -0.07475967 0.22362652 -0.03619416 0.16467188
000040 46 b7 cf bc fa 90 dc 3d c3 d1 19 3c ec 5a 68 bd
       -0.025355946 0.107698396 0.00938839 -0.056727335
000050 2f aa 2f be d5 e5 5e be 65 69 c5 3d 04 87 35 be
       -0.17154764 -0.21767361 0.09639243 -0.17727286
000060 00 64 5e be 0c 6f 1a be 42 ae 59 be 11 74 e4 bd
       -0.21717834 -0.15081424 -0.2125788 -0.111549504
000070 be c8 08 bd 4a f2 6a 3e b3 62 b7 3d c9 f1 42 3e
       -0.033394568 0.22943988 0.08954372 0.19037546
000080 84 8d a4 bd 51 f6 51 3e 3d 3c d6 bd 49 43 4a 3d
       -0.080348045 0.20504119 -0.10460708 0.049380574
000090 eb d4 47 3e dc ad 4a be 35 fc ca 3d 83 30 45 bd
       0.19514816 -0.19792885 0.09911386 -0.048141968
0000a0 78 0c 45 bc b6 a5 ae 3c a1 50 f8 3c b6 db 47 3e
       -0.012026899 0.021319252 0.030311884 0.19517407
0000b0 e9 30 6d be 41 b4 e4 bd cd 56 db 3d 15 8a ff bc
       -0.23163189 -0.11167193 0.10709915 -0.031193772
0000c0 fd a4 2c 3c 59 c7 cd 39 56 6b 17 3e a1 9c 9c bd
       0.010537383 0.00039249173 0.14787039 -0.07647062
0000d0 bf 0d 57 3e 1c 37 7f bd 63 8d 5c 3d 87 5f 34 3c
       0.21001337 -0.062308416 0.053845774 0.011009104
0000e0 3b 90 d9 3d 88 cd fe 3d c7 26 2d be ab d5 68 3d
       0.10623213 0.12441546 -0.16909324 0.056844395
0000f0 61 f5 fa bd 60 3f d4 bc fd ac 67 3e 95 03 a3 bd
       -0.122538336 -0.025909126 0.22624584 -0.079596676
000100 a7 31 26 be 00 f4 e8 bd db a0 63 be b6 38 de 3d
       -0.16229878 -0.11374664 -0.2222933 0.108506605
000110 21 cb 1e be ae 5b 45 be 15 b0 01 3e b2 59 13 be
       -0.15507175 -0.19273254 0.12664826 -0.14389685
000120 1b 4d 2c 3e 80 f3 49 be 7d b7 7b 3c e0 60 20 3e
       0.16826288 -0.19721794 0.015363571 0.15661955
000130 24 b0 a9 bc 8c e6 38 3d 52 a5 f2 3d d0 03 01 3e
       -0.020713873 0.04514174 0.118479386 0.1259911
000140 ab 21 db bc 29 7d d4 3b 64 dd 19 3e f4 f5 c0 3d
       -0.026749453 0.006484647 0.1502586 0.09421912
000150 ff 15 d6 3d cc 6f 8f 3d a1 1d f7 bd c9 a8 52 bd
       0.10453414 0.070037454 -0.12066198 -0.051430497
000160 15 19 0d bd c2 6f d3 ba 1b 48 48 3e 11 a9 56 3e
       -0.03444775 -0.0016131329 0.19558756 0.20962931
000170 98 38 b8 3d 1f 3a 97 bd c5 bd 24 3e a9 ef fb 3c
       0.089951694 -0.073841326 0.16088016 0.030753927
000180 7b e7 11 3e 9b f5 fd bd bb 48 17 3e a9 4b 4a 3e
       0.14248459 -0.12400361 0.14773838 0.19755425
000190 50 d9 df bd 83 76 63 3e d0 33 4c be 08 e8 2f be
       -0.10930121 0.22213177 -0.1994164 -0.17178357
0001a0 80 90 bd bd 3d 57 62 be 52 ad 59 be b6 ce 14 be
       -0.09256077 -0.22103591 -0.21257523 -0.14531979
0001b0 97 33 d9 3d 94 55 54 3d 81 85 b9 bd d2 20 09 3e
       0.10605543 0.051839426 -0.09058667 0.13391426
0001c0 48 95 16 3d d0 b6 f7 3d 41 39 b8 bc e5 d4 0e 3e
       0.03676346 0.120954156 -0.022488238 0.139484
0001d0 83 14 97 bd 6b fd 90 3d 6b 30 49 be 23 9f 31 3e
       -0.07376959 0.07079586 -0.19647376 0.17345862
0001e0 70 d9 4e 3e 40 eb 43 be 0f d8 48 3e 03 f9 4a 3b
       0.20200133 -0.1913271 0.1961367 0.0030971176
0001f0 99 08 55 3e b8 b4 6e 3d 56 fe 43 be f0 4a 0c be
       0.20804061 0.058277816 -0.1913999 -0.13700461
000200 c1 c2 46 be 8d 96 d0 bd 0c 6c 30 bc 42 88 e6 bd
       -0.1941023 -0.10184965 -0.010767948 -0.11256458
000210 4c 07 99 bd 22 20 3b 3c 77 07 5c 3e d9 4f 65 3e
       -0.07472095 0.011421235 0.21487223 0.2239374
000220 ca 49 51 3d 53 bb 08 be 81 e7 42 3e 94 e0 06 be
       0.05109576 -0.13352709 0.19033624 -0.13171607
000230 4c 85 0c 3d a8 42 67 3e ed b1 29 3e f4 09 5f bd
       0.03430681 0.22584021 0.1657178 -0.05445285
000240 62 ed 02 be 1b f9 49 be a5 a0 87 bd 01 08 5b be
       -0.12785867 -0.19723932 -0.066224374 -0.21389772
000250 66 95 27 3e ef b8 1c 3c 25 5a 04 be c4 f0 f1 bd
       0.16365585 0.009565576 -0.12925012 -0.118135005
000260 e3 9a 2f 3d c3 66 c8 bb 16 6d 5c 3e 31 b5 98 3d
       0.04287232 -0.006115766 0.21525988 0.074564345
000270 83 7f eb bd 9d 65 88 bd 65 1e 4f 3e 54 6b bc 3d
       -0.1149893 -0.06660006 0.20226438 0.09200159
000280 9b d9 ff bd 08 41 d5 bd 93 83 38 3d ed 64 55 3e
       -0.12492677 -0.10412794 0.045047354 0.20839281
000290 8b 23 59 3e 3d 53 00 3e 32 f9 88 3d 3c 24 4a 3e
       0.21204965 0.12531753 0.06688155 0.19740385
0002a0 42 aa 9f 3b a1 02 46 be 6a b7 23 be cd 16 b9 bc
       0.0048725912 -0.1933694 -0.15987936 -0.02259388
0002b0 d3 7e 68 3d 65 c8 3a 3e a9 71 07 be 0b e9 40 bd
       0.056761574 0.18240507 -0.13226952 -0.047097247
0002c0 89 3f 10 be ad e3 40 3e 53 64 8d 3c 97 60 16 bd
       -0.14086737 0.18836851 0.017259752 -0.03671321
0002d0 74 c0 0c 3d 69 a8 19 be de e9 1b 3d ae de 1c 3d
       0.034363225 -0.1500565 0.03806483 0.0382983
0002e0 57 f3 12 3e 61 7a c0 bd e1 e2 3b 3e e6 0c c3 3d
       0.1435064 -0.09398342 0.18348266 0.095239446
0002f0 fb ba 30 3e 13 66 7b 3d 54 97 96 bd fb 08 16 bd
       0.17258827 0.061376642 -0.07353082 -0.03662966
000300 8d b0 bc bd 7c b0 34 be 45 54 c5 3d fb f7 e6 3d
       -0.09213362 -0.17645448 0.09635214 0.11277767
000310 40 66 50 be df 40 bf 3d 09 f3 34 bd 87 ad 80 3d
       -0.20351505 0.09338545 -0.04417709 0.06283098
000320 f1 2c 9f 3d f1 3b 58 3e 42 e1 30 be 80 fc e4 bd
       0.07772244 0.21116616 -0.17273429 -0.11180973
000330 4e df 5d 3e f6 e7 1c be b8 20 46 bd 11 a1 97 3d
       0.21667215 -0.15322861 -0.048371047 0.07403768
000340 9b 17 74 bd a2 5f 24 be b1 f4 9a 3d b1 34 6b 3d
       -0.059592824 -0.16052106 0.075662024 0.057423297
000350 4b a4 7b 3c 64 af 69 3e 8a a9 4e be a2 87 9b 3c
       0.015358995 0.22820812 -0.20181862 0.018985573
000360 4c 5e 37 3e 10 f8 a8 bd a8 94 82 bc 15 59 50 3e
       0.17907065 -0.08250439 -0.015940025 0.20346482
000370 92 f6 2d be 57 a5 ba bd 16 3c e0 39 0d 56 30 bd
       -0.1698859 -0.09113567 0.00042769377 -0.043050814
000380 1d bc 85 3d 8c 38 e2 bd 7b e0 c8 3b ac 9b 11 bd
       0.065300204 -0.11045942 0.006130276 -0.03554885
000390 bd 9b 21 3d 53 e7 59 3e f9 37 9b bd 08 b6 17 3e
       0.039455164 0.2127965 -0.07579035 0.14815533
0003a0 ad 81 dd bd f5 95 2d be f8 bc f3 bd b3 ea fb 3d
       -0.10815749 -0.16951735 -0.11901277 0.12300625
0003b0 84 72 0a be 76 c8 51 be f4 ba 57 3b da 77 2e 3c
       -0.13520247 -0.20486626 0.003291783 0.010648692
0003c0 bd ce 5b be 54 04 58 be db 5e 80 bd 01 f6 85 bd
       -0.21465583 -0.21095401 -0.06268092 -0.06541062
0003d0 6e ee b3 3c ab b3 44 3d 98 8e dc bd 29 79 2b 3e
       0.021964278 0.048022907 -0.10769385 0.16745438
0003e0 a4 8a 69 3e 4e 76 3b 3e a8 ec 0b 3e 6b bf 6d 3c
       0.22806793 0.18306848 0.13664496 0.01451097
0003f0 41 61 32 be d7 31 22 3d 8d ec 41 bd 1d 61 f6 3c
       -0.17419912 0.039598312 -0.047344733 0.030075604

stem.0.bias f4 [16]
000000 96 42 60 3d 09 10 5b be 57 b1 6b 3b 00 af 4c 3e
       0.054751 -0.21392836 0.0035963857 0.19988632
000010 70 4e 1d be b6 48 64 3e 4c c9 33 3e 3d 82 1a be
       -0.15361953 0.22293362 0.17557257 -0.15088744
000020 e2 28 13 bc 80 72 6f b6 ee a6 93 bd 40 3a ff 3c
       -0.008981915 -3.5680423e-06 -0.07209574 0.031155705
000030 d0 b7 1a be 21 1e 10 3e e0 bb 30 3e 1c c2 01 3c
       -0.15109181 0.14073993 0.17259169 0.007919814

stem.1.weight f4 [16]
000000 73 15 89 3f bc 61 8c 3f 36 3d 8a 3f a1 0c 93 3f
       1.0709671 1.0967326 1.079993 1.1488229
000010 74 58 8c 3f 80 8f 8f 3f 75 a9 85 3f b4 eb 8c 3f
       1.0964494 1.1215668 1.0442339 1.1009431
000020 fd 47 7b 3f ec fe 87 3f 93 cf 95 3f b7 7a a3 3f
       0.9815672 1.0624671 1.1703972 1.2771825
000030 e4 9c 8e 3f be 3a 9f 3f 58 8a 96 3f 7b b3 85 3f
       1.1141629 1.2439802 1.1760969 1.0445398

stem.1.bias f4 [16]
000000 9b 68 9f bd d5 fa 64 be a8 c5 6a bd 0f 6c c5 bd
       -0.07783624 -0.2236131 -0.057317406 -0.09639751
000010 c2 f6 4e bd 87 e3 0e be 26 9f 8c bd 74 6c 6a bd
       -0.050528295 -0.13953982 -0.06866293 -0.057232335
000020 b1 fc a4 bd 25 ed 09 be e8 0c dc bd 4e db fd bc
       -0.080560096 -0.1346937 -0.10744649 -0.030988362
000030 aa 7e 44 be 38 49 da bd d5 b0 01 be 8f cf c8 bd
       -0.19188944 -0.106584966 -0.12665112 -0.09805214

stem.1.running_mean f4 [16]
000000 7c a9 89 bd d7 20 29 3e e6 8f d3 bc b9 d1 9d 3e
       -0.0672178 0.16516434 -0.025825452 0.30824068
000010 d9 30 00 3e 39 46 60 3e 53 b3 33 3f 69 d5 84 be
       0.12518634 0.21901788 0.701955 -0.2594407
000020 22 29 b8 be 98 b9 21 3f 14 39 69 bd fc e1 14 be
       -0.35968882 0.6317382 -0.0569392 -0.14539331
000030 c8 10 c3 3e 5c 9c 9c 3e e5 40 43 3e 54 30 67 3d
       0.3809874 0.30588043 0.19067724 0.056442574

stem.1.running_var f4 [16]
000000 ff 2d 11 3d 5e eb dd 3c 3c a8 1d 3c 66 18 59 3d
       0.035444256 0.02708977 0.00962263 0.053001784
000010 fe de 12 3d 1b 1d fb 3b 3b ac 66 3d 7c 71 e1 3c
       0.035857193 0.0076633818 0.056316596 0.027519934
000020 c4 40 22 3d c0 57 aa 3d 61 8a 82 3c 83 37 12 3d
       0.039612547 0.08317518 0.015935125 0.03569747
000030 46 2f 71 3d 11 9a a7 3c d5 3e 95 3d ce 3b b5 3c
       0.058882974 0.020459207 0.07287375 0.022123244

layer1.0.conv1.weight f4 [16, 16, 3, 3]
000000 26 0b af bc 17 ba 70 bc ed 96 05 bc b8 21 e3 bd
       -0.02136762 -0.014692805 -0.008153659 -0.11090416
000010 9b b2 29 3d 02 d5 37 3d 81 13 b4 3d 4e f4 4a 3e
       0.041430097 0.044880874 0.087927826 0.19819757
000020 fd ae 29 3e 2e 70 a0 3d 36 b0 b5 3d a6 41 97 3d
       0.16570659 0.078338966 0.088715 0.07385568
000030 ab 5a c2 bd c0 1e 04 3d 86 86 3f be 65 83 07 be
       -0.0948995 0.032255888 -0.1870366 -0.13233717
000040 c8 4f 0d be a7 36 8f bd 91 c2 3e bd 09 9d 28 bd
       -0.13799965 -0.06992846 -0.04657227 -0.041165385
000050 a4 de 65 bb fc 5c 66 b9 94 57 be bd e6 c1 b1 bd
       -0.003507533 -0.00021969149 -0.09294048 -0.08679561
000060 a2 4a 9a bd e7 67 f9 bb b4 ae 34 3d 12 b3 8d 3d
       -0.07533766 -0.007611263 0.044111922 0.069189206
000070 c8 8e 39 3d e8 1b 99 3d a8 ce 44 bd 48 fb ae bb
       0.045302182 0.07476026 -0.048048645 -0.0053400137
000080 51 3d 03 3d 3f d8 39 3e 6a 47 7d 3d 89 5f 8c 3d
       0.032040898 0.18148898 0.061835684 0.068541594
000090 19 29 b5 bd 8b ff c1 bd ac 11 3d 3d fc 7a d3 bd
       -0.088457294 -0.09472569 0.04615943 -0.10326192
0000a0 f0 41 14 bd 50 15 ff bc 68 bd 3d bb ed 45 78 3d
       -0.036195695 -0.031138092 -0.0028952006 0.06061356
0000b0 d2 66 c3 3d 3a 7c d8 bc a8 ab a6 3c 3b e5 6f bd
       0.09541096 -0.026426423 0.020345524 -0.05856822
0000c0 03 d1 83 bd 40 72 e2 bd 88 64 14 be ce a5 0e 3d
       -0.0643635 -0.11056948 -0.14491475 0.034826092
0000d0 d3 3c a3 3d 0c f8 69 3a 3b 25 ab 3d 60 c7 0e 3e
       0.07970586 0.00089252065 0.083567105 0.13943243
0000e0 3b bd de 3d 9f 61 1b bd a5 71 7a bd 44 27 17 3b
       0.108759366 -0.037934896 -0.061143536 0.0023064176
0000f0 c3 7d f7 bd 00 ab f5 bd 9b 89 30 be f6 ea 44 be
       -0.12084534 -0.11995506 -0.17239992 -0.19230255
000100 d5 e9 1b be d8 57 ca bd 8e bc 5a 3b 93 8a 87 3d
       -0.15225919 -0.09880036 0.0033376548 0.06618228
000110 8d e7 59 3d 34 a2 34 3d 5e 83 ed 3a 43 35 ed bd
       0.05319934 0.0441 0.0018120816 -0.115824245
000120 ec d6 a2 bd 9f 4b e8 bd 12 b3 9d bd 0c 30 86 3b
       -0.07951149 -0.113425486 -0.077001706 0.004095083
000130 3e 6d e1 3b cd b9 dd bd e1 e2 08 bb 84 ec 2c 3d
       0.0068794778 -0.10826454 -0.0020887183 0.042217746
000140 91 3c 00 3e 20 a5 bb 3d 8b 71 07 3e dc 88 30 3e
       0.12523104 0.091623545 0.13226907 0.17239708
000150 29 d0 59 bd 24 85 32 be 04 76 c8 bd 51 0a 2c be
       -0.053177033 -0.17433602 -0.09788135 -0.1680081
000160 bd 8f 4d bc 02 b8 c8 3c 43 b5 20 3e ae e0 3a 3c
       -0.012546477 0.024501804 0.15694146 0.011406107
000170 99 b1 c3 bb af c6 ed bc 4b fc 12 3d e6 a0 88 3d
       -0.005972099 -0.029025404 0.035885137 0.06671314
000180 86 8b ce 3d db be ed 3d d9 89 37 bc bc e7 30 be
       0.10085206 0.116086684 -0.011202299 -0.172759
000190 aa 14 cf bd e3 1e 4f bd 5f ca c6 bd 9f 6a 3f 3c
       -0.10111363 -0.050566565 -0.09706568 0.011683135
0001a0 e0 17 21 bc b8 49 d6 bd 07 f8 e7 3c 23 86 fc bd
       -0.009832352 -0.104632795 0.02831651 -0.12330272
0001b0 ba 37 c8 bc f6 60 09 3e 7d 39 1c 3d 48 1e 9b bd
       -0.024440635 0.13415894 0.038140763 -0.07574135
0001c0 ef c4 90 bd 51 0a ec 3a 6e bc 02 bd fd d6 02 3c
       -0.07068812 0.0018008446 -0.03191798 0.0079858275
0001d0 b0 bb 9a bd 68 1a d6 bd 7b 37 d2 3d b8 61 27 bc
       -0.0755533 -0.10454255 0.10264488 -0.010216169
0001e0 2e 47 88 bb 44 db 70 bd 1f 42 80 3c e7 07 22 be
       -0.004158876 -0.058802858 0.015656529 -0.15823327
0001f0 16 56 26 bd 4d 68 92 bc 05 41 f2 bd a6 07 19 be
       -0.04060944 -0.017872 -0.11828808 -0.14944324
000200 10 f8 20 bd 08 66 a1 3d 98 ca 59 bd 56 a9 a8 3d
       -0.03929907 0.07880789 -0.053171724 0.08235423
000210 29 fd 47 be b7 7a 1f be 68 f9 57 3d 81 6d 65 3d
       -0.19530167 -0.15574156 0.052728087 0.056012634
000220 8e 6e c0 3d 0d 3a 89 3c dc 3d 13 bd c1 92 04 3d
       0.09396087 0.016751314 -0.035947666 0.032366518
000230 33 e5 7b 3c f7 2d 9c bd aa 30 19 3d fb af f3 3c
       0.01537447 -0.076259546 0.037399925 0.029747
000240 66 38 71 3d aa 4e 99 bd d7 06 0f 3d 44 47 d8 bb
       0.058891676 -0.07485707 0.034918632 -0.0066002924
000250 87 73 99 bd 62 a5 ac bd 9f de af 3d bd a3 65 bd
       -0.07492738 -0.08429982 0.085873835 -0.056064356
000260 61 e3 a1 3d 98 0c f7 ba d4 0b b3 3d 28 9f 76 3d
       0.07904697 -0.0018848358 0.087424904 0.060210377
000270 78 87 12 3d 62 80 52 bc b9 87 96 3d 51 e9 27 3c
       0.035773724 -0.012847992 0.07350106 0.010248498
000280 31 23 07 3b ca 75 81 bc c4 82 e7 3b ad 92 97 bd
       0.002062034 -0.015803237 0.007065149 -0.07401023
000290 f4 eb 67 3d 59 7c cb 3d 39 99 49 3d 06 b0 40 3c
       0.056621507 0.09935827 0.04921839 0.011760717
0002a0 ce 25 46 bd d4 34 30 be 6f 9a 2a bd 73 50 16 3d
       -0.048375897 -0.17207652 -0.041651186 0.036697816
0002b0 2e 55 43 be ec 0a a4 bd 9b 08 0e be 9a c1 42 be
       -0.19075462 -0.08009896 -0.1387047 -0.19019166
0002c0 7b 76 2c be ba 65 a0 3d da fc a8 bc 5e 1e fb 3c
       -0.16842072 0.07831903 -0.020628382 0.030654129
0002d0 63 8c ac 3d 58 00 be bd 03 62 33 bc 63 a3 8b bc
       0.08425214 -0.09277409 -0.010948661 -0.017045682
0002e0 7f c3 01 3d bd ab 80 bc ac fd c6 bc 8e d2 06 be
       0.03168058 -0.015706891 -0.024290882 -0.13166258
0002f0 84 0a 0c be 4a 3e c1 3c 8d a7 ff 3c a4 6b ae 3c
       -0.13675886 0.023589272 0.031207824 0.021291561
000300 f8 90 cc bc 0d 7e a9 bd a7 bb fb bc ce d5 5b bd
       -0.02497147 -0.082759954 -0.030729128 -0.053670697
000310 6a 2d b9 bb 33 42 b2 bd 24 f1 13 39 6f c4 c6 3d
       -0.0056511657 -0.08704033 0.00014108844 0.097054355
000320 db b8 fc 3d 0a a1 e4 3c 4f 65 a5 3d f1 61 8d 3d
       0.12339946 0.02790882 0.08075964 0.069034465
000330 93 7a 90 bb 98 a8 42 3d 1d 95 cd bc 72 7a ae 3b
       -0.0044091432 0.047524065 -0.025095517 0.005324655
000340 13 eb f6 bd ae 35 01 3d 58 47 bb bc 8a 78 01 be
       -0.120565556 0.031545334 -0.022861168 -0.12643638
000350 0a 3b 47 bc 23 2a 17 3c b1 b9 ae bd 4f db 9f 3d
       -0.012160072 0.009226355 -0.085315116 0.07805502
000360 50 03 86 bd 64 3a 22 be 1f 88 74 bc cd c0 d5 bc
       -0.065436006 -0.15842587 -0.014925032 -0.026092911
000370 d9 7a 39 be 25 bd 0a bd b2 b5 97 3c ec 00 ea bd
       -0.18113269 -0.03387179 0.018519256 -0.11425957
000380 07 54 2e bd 9e 1c 59 bd df 68 23 bd 31 69 78 bd
       -0.042560603 -0.053005807 -0.039894935 -0.060647193
000390 46 42 fe 3a 94 1d 7f 3d d8 a3 04 3d ea 8e 02 3c
       0.0019398413 0.062284067 0.032382816 0.007968644
0003a0 73 a7 0a 3d 7e 67 5b 3c 07 93 0b 3e 41 ff d5 3d
       0.0338511 0.013391374 0.13630305 0.104490764
0003b0 d3 2a d9 3d ec 0d 29 bd 84 b4 59 3b 36 5e c6 3d
       0.10603871 -0.041273043 0.0033219168 0.09685938
0003c0 69 e4 13 bc 66 23 10 be df 7f cb bd 70 b2 c8 bd
       -0.009026625 -0.14076003 -0.09936499 -0.09799659
0003d0 b4 32 f9 bd ed cf 46 be 97 38 cd 3d 70 77 01 3d
       -0.12167874 -0.19415255 0.10020559 0.031608045
0003e0 15 29 b0 bd 19 08 33 3d 7b 90 92 bc 0e 15 a4 bd
       -0.08601586 0.043708894 -0.01789116 -0.08011828
0003f0 55 cf a9 bd d9 c4 99 bd 2e 08 02 bd 9f 35 14 be
       -0.082914986 -0.07508249 -0.031746082 -0.1447358

layer1.0.conv1.bias f4 [16]
000000 09 19 4b bd 04 29 cd 3b b2 cd bc bc a6 af 3f bd
       -0.049584422 0.006260993 -0.023047302 -0.04679837
000010 40 ad af bd 60 15 88 3d 2a 87 84 3d a6 74 38 3c
       -0.08577967 0.06644702 0.06471093 0.01125828
000020 0b 6b cd bc 9c b6 0e 3d d5 29 aa bd e2 a5 79 bd
       -0.025075456 0.03484212 -0.0830876 -0.060949214
000030 a2 86 1b 3d d4 e1 80 3d 7f f5 9f bd fe 96 19 be
       0.037970193 0.06293073 -0.078104965 -0.14999005

layer1.0.bn1.weight f4 [16]
000000 32 80 80 3f a5 6c 85 3f 8f 70 7e 3f 3f 12 6e 3f
       1.0039122 1.0423781 0.993905 0.9299659
000010 65 ea 7d 3f b1 3e 72 3f 58 db 68 3f 94 ca 86 3f
       0.9918578 0.9462691 0.9095969 1.0530572
000020 4c f8 88 3f fb 83 7d 3f d6 14 87 3f cb 12 87 3f
       1.0700774 0.9902951 1.0553234 1.055261
000030 a3 27 88 3f 74 21 7a 3f 42 0b 7c 3f 2f 4e 8b 3f
       1.0637096 0.97707295 0.9845468 1.0883235

layer1.0.bn1.bias f4 [16]
000000 b9 6c 1e be 79 4b c3 bd 3e 5f 13 bd 31 d6 1c be
       -0.15471162 -0.0953588 -0.035979502 -0.15316083
000010 f3 01 64 bd 0c 8a d7 bd 7d 74 b0 bd f8 95 0c 3d
       -0.05566592 -0.10524377 -0.086159684 0.03432271
000020 a1 56 d3 bd d1 7a 5d bc 43 ce 04 bd db 3e 8d bd
       -0.103192575 -0.013518051 -0.03242327 -0.06896754
000030 35 c9 0d 3e f9 98 cc bd 11 8d 56 bd 9b 8a 02 be
       0.13846286 -0.09990115 -0.052380625 -0.12748186

layer1.0.bn1.running_mean f4 [16]
000000 9c 10 b7 bf 96 f7 1c c0 4a 6d b0 3f 52 b2 cb 3f
       -1.4301944 -2.4526114 1.3783352 1.5913794
000010 0d 1c e3 3f 73 6f 04 40 67 2f 15 40 14 e8 57 3f
       1.7742935 2.0693023 2.3310182 0.843385
000020 33 e0 fd bd 79 01 0b 3f 7c 2a b6 3e bb 6e e7 bf
       -0.12396278 0.5429912 0.35579288 -1.8080667
000030 c1 b6 df bf 77 23 f2 be f6 3a 44 bf 00 cf 15 c0
       -1.7477647 -0.47292683 -0.7665247 -2.3407593

layer1.0.bn1.running_var f4 [16]
000000 9a 4c ba 3f 17 bf 7e 3f da 9c 00 40 9e a9 36 40
       1.4554627 0.9951033 2.0095735 2.8541026
000010 32 1b 7a 3f d6 af 1e 40 d4 db 20 40 8a 23 81 3f
       0.97697747 2.4794822 2.5134172 1.0088971
000020 1b c0 bc 3f 48 60 61 3f ab 48 86 3f 0f fe cb 3f
       1.4746126 0.8803754 1.0490927 1.5936908
000030 98 03 e1 3f bf 4a e9 3f 37 1d b2 3f 58 01 87 3f
       1.7579222 1.8225936 1.3915166 1.0547285

layer1.0.conv2.weight f4 [16, 16, 3, 3]
000000 23 ef 36 3d eb 3a 81 3d 46 03 9f 3d d7 e5 ec bd
       0.044661652 0.06310066 0.07764296 -0.11567276
000010 1d 4e ff 3c e5 6e 70 bd 09 14 b1 bd 1a f7 96 3d
       0.031165177 -0.058699507 -0.086463995 0.0737135
000020 7e 3c 19 3d 8a 12 f4 3d 60 4c 07 3e 05 76 93 bd
       0.037411205 0.119175985 0.13212729 -0.07200245
000030 ef fa 01 3d f2 11 76 bd e6 e1 f2 bd bd 14 71 3d
       0.03173345 -0.060075708 -0.11859493 0.05885767
000040 85 c1 8a 3d f5 e6 ae bc f7 5f 42 bd 5a 1e 52 bc
       0.06775192 -0.021350363 -0.0474548 -0.012824619
000050 26 dc 55 3d 52 2c c2 3b 7d 54 57 bd 68 35 d6 3d
       0.052211903 0.0059256935 -0.05257081 0.10459405
000060 63 48 64 3c a6 45 ba 3c 60 2e bc 3c 85 a1 24 3a
       0.013933274 0.02273829 0.022971332 0.0006280172
000070 04 9c f7 3d 26 cd 6c bc a2 8f 36 bd ea ec 91 3c
       0.120903045 -0.014453208 -0.044570573 0.017813165
000080 d1 7a d6 ba 0b 3d 46 bd a2 a5 54 3d 1c c4 1c 3e
       -0.0016363506 -0.04839806 0.051915772 0.15309185
000090 ba 44 ef bd 48 df 1a be a5 13 90 3d f4 99 14 be
       -0.116830304 -0.15124238 0.07034997 -0.14511853
0000a0 22 db d8 bd f8 57 4f bd 8f d8 16 be 5e aa 35 bd
       -0.10588671 -0.050621003 -0.14731048 -0.044351928
0000b0 01 95 eb bd 02 04 27 3e 78 4e de 3d c5 3b d8 3d
       -0.115030296 0.16310123 0.108548105 0.10558275
0000c0 c3 c0 9e 3d 4e b8 8c 3d c4 f8 06 3d 95 e2 36 3d
       0.0775161 0.06871091 0.032952085 0.04464968
0000d0 8a 7a 58 bd 1c 99 5f bb 72 1e 3a 3d c7 b3 ab bd
       -0.052851237 -0.003411836 0.04543919 -0.08383899
0000e0 cf 40 63 3d 62 36 c5 bd a4 00 06 bd 05 35 94 3d
       0.05548173 -0.09629513 -0.032715455 0.07236675
0000f0 52 bf 8f bc 8a 28 a5 3c d8 88 c1 3a e5 4d 4c bd
       -0.017547283 0.020160932 0.0014765514 -0.049878974
000100 dc 93 3a 3d e4 37 bb 3b 98 68 46 3d 9e 48 02 bd
       0.045551166 0.00571345 0.048439592 -0.031807534
000110 6c 4d 78 3d e2 9b 03 3e 70 9f 60 3d d0 c1 b1 3c
       0.06062071 0.12852433 0.05483955 0.021698862
000120 ca 52 04 3e af 8b e2 bc f6 fb e1 3c ba b6 2c bd
       0.12922207 -0.027654497 0.027585965 -0.04216645
000130 08 4e 46 bc eb 65 04 3e 8b db 6a bd a8 dc 00 3c
       -0.012103565 0.12929504 -0.05733828 0.007865109
000140 ca cb 26 bd 46 6b 1e 3e 46 fd 30 3e 65 de 02 3e
       -0.040721692 0.15470609 0.17284116 0.1278015
000150 e6 25 3f 3d 8f 5c f8 3c 6a 92 44 bb f3 91 e1 3d
       0.046667002 0.030317573 -0.0029994496 0.11014166
000160 46 9a 48 bb 83 23 b8 bd 94 75 46 bd c9 ae 22 3c
       -0.0030609532 -0.08991148 -0.048451975 0.009929367
000170 6c a8 38 3d 26 77 2d 3d 9a a0 b6 bd 62 1b 26 3e
       0.045082495 0.042349957 -0.08917351 0.16221383
000180 4d 5e e1 bd fe b1 cf bd da 1b 2e bd cb d0 0c 3e
       -0.110043146 -0.10141371 -0.04250703 0.13751523
000190 3b 1e ed 3c 10 1c d3 bd fa bc 71 bc d5 b9 84 bd
       0.02894508 -0.10308087 -0.014754528 -0.06480757
0001a0 f7 25 f8 bd 26 d2 4a bd 20 56 da bc d7 fd ab bd
       -0.12116616 -0.04951682 -0.026652396 -0.083980255
0001b0 0a 2d e5 3d 28 bf 67 bd 85 6c 3f be 1b cb 02 3e
       0.11190231 -0.056578785 -0.1869374 0.12772791
0001c0 b2 a3 18 3d 75 9a af bd 9a 11 38 3e 19 6f 35 3e
       0.037265487 -0.08574382 0.17975464 0.17718162
0001d0 41 2a be 3c 55 72 b0 bd 8b 53 15 be 08 e0 17 3d
       0.023213508 -0.08615557 -0.1458265 0.037078887
0001e0 9d aa 27 3d 05 a1 2a be 94 5b d5 bc 4e 68 f5 3c
       0.040934194 -0.16662987 -0.026044644 0.029956963
0001f0 d4 97 d2 3c 08 4d a3 bc 0e 77 2d bd 63 0a 14 bc
       0.025707163 -0.019934192 -0.042349868 -0.0090356795
000200 fe 94 03 bd 33 5a 46 bc fa 1a e5 bc 22 c5 1c bd
       -0.032124512 -0.012106466 -0.027966965 -0.038273938
000210 b6 78 2d 3e cf 3d b6 bc b8 55 94 bc f1 ec 40 3d
       0.16940579 -0.02224627 -0.01810728 0.047100965
000220 ce d8 05 3e aa cc 0e be 9b 78 80 bc 2a bb a7 3d
       0.13070986 -0.1394526 -0.01568251 0.081899956
000230 53 8c c1 bd 85 e2 51 3e 62 c9 ed 3d 67 f6 19 3d
       -0.09450593 0.20496567 0.11610676 0.037588503
000240 dd 93 93 bc a8 91 1f bc 51 65 a6 bd 43 6c 8e bd
       -0.018014843 -0.009739317 -0.08124793 -0.06954243
000250 b6 e2 d0 bc 1d 26 e2 3c 45 a0 93 3d e5 21 97 bd
       -0.02549873 0.027606064 0.07208303 -0.07379512
000260 c3 61 c6 bd fa b1 7e 3d 02 37 85 bd ee 25 79 3c
       -0.09686615 0.06218145 -0.065046325 0.015206797
000270 c7 0b df 3c d8 d7 72 bc 47 a4 46 bd 7f df ec bb
       0.027227296 -0.014821969 -0.04849651 -0.0072287912
000280 c9 4e bb bd c9 25 b5 bd 37 86 f1 3c 32 b1 cb 3b
       -0.091458865 -0.088450976 0.029482944 0.0062161917
000290 8b 45 fe bc 32 d0 03 3e 66 5d 2a 3e 1e e8 53 3d
       -0.03103902 0.12872389 0.16637191 0.051735036
0002a0 b1 82 24 3e fa 76 27 3e 1e 7f 19 bd 8c a8 85 3d
       0.1606548 0.1635398 -0.037474744 0.065262884
0002b0 af bc c1 3c 24 e6 4b bd c2 28 f4 3d ca a6 d6 3c
       0.023649542 -0.049780026 0.119218364 0.026202578
0002c0 2f 13 af 3a 2f 8d 67 3d b1 14 c3 bd db 9e 6b 3d
       0.0013357158 0.056531128 -0.09525431 0.057524543
0002d0 cf 9e ab bc f0 09 71 bd b2 eb d8 bd 54 35 0d 3d
       -0.02094975 -0.058847368 -0.1059183 0.034474686
0002e0 33 88 6f bd 99 bc 5a 3d 73 cb 84 3c c2 78 47 be
       -0.0584795 0.053402517 0.016210293 -0.19479659
0002f0 2a df 38 3d f3 f5 01 3d 3b 84 b3 3d 39 5f ca bc
       0.0451347 0.031728696 0.08765455 -0.024703609
000300 53 3d cf 3d 26 62 2f 3e fe 04 1b 3e 4c e4 1c bd
       0.101191185 0.17127284 0.15138623 -0.03830366
000310 18 a5 00 3e 77 29 e3 3d 44 26 39 3d a6 15 1b 3d
       0.12562978 0.11091893 0.04520251 0.037862442
000320 27 4d 15 be 3a 52 7e 3b 61 36 f5 3d 64 d7 d4 bc
       -0.14580213 0.0038806335 0.119732626 -0.025981613
000330 e5 62 c4 3c e5 20 ae 3d 81 5a f7 bc d7 c3 b1 bd
       0.023972938 0.08502368 -0.030194523 -0.086799316
000340 1e f7 9a bc 8c 25 1a be ca 06 b5 3c 9d 00 82 bd
       -0.018916663 -0.15053385 0.022097964 -0.06347773
000350 fd 59 2f be fe a2 d2 bd 25 99 08 3d 48 e3 0a bd
       -0.17124172 -0.102849945 0.033349175 -0.03390816
000360 20 31 0b 3d e3 97 c1 bd dd 53 95 3c 39 38 80 3d
       0.033982396 -0.09452798 0.018228466 0.062607236
000370 65 17 9e bb af 5f 16 be 7d 2c 0e be d5 39 97 bd
       -0.004824566 -0.14684938 -0.13884158 -0.073840775
000380 1c 65 cc bd 91 27 e7 bb 36 5f 83 3c 15 82 d4 3a
       -0.099802226 -0.007054277 0.016036611 0.0016213084
000390 04 7d d7 3b 5a d5 00 3e 12 6a 2e 3e 73 59 6b 3c
       0.0065761823 0.12581387 0.1703265 0.014364588
0003a0 4e 42 1a 3c a5 95 4f 3d 5b c6 d4 bd e1 0a 1c be
       0.009415222 0.05067982 -0.10389396 -0.15238525
0003b0 15 9d 31 bb 1d 26 6b bd 62 8d 62 bc 3e 73 1b 3d
       -0.0027101685 -0.057409395 -0.013827654 0.0379517
0003c0 8c 17 39 3d e5 5c 6d bd b5 df 9d 3d 41 00 dd bd
       0.04518847 -0.05794992 0.07708684 -0.10791064
0003d0 53 95 c1 bd db 0f 17 bd cc 37 37 3b c8 63 8d bd
       -0.094523095 -0.036880355 0.0027956842 -0.069037974
0003e0 39 94 b9 3c a0 d6 31 be e3 1a ee bd cb fc a2 3c
       0.022653686 -0.17367029 -0.11626222 0.019895932
0003f0 75 7c 11 3c 9c 22 84 3d 2c 47 b6 bd 94 d6 09 3d
       0.0088797705 0.06451914 -0.08900294 0.033651903

layer1.0.conv2.bias f4 [16]
000000 31 84 8f bc 02 5c 2e 3d 87 60 9a bd 44 eb 59 3d
       -0.017519088 0.042568214 -0.075379424 0.053202882
000010 ea 7d 9e bd b9 c2 a2 3d c9 e4 a7 3d 2f e7 b7 3d
       -0.0773886 0.07947297 0.08197934 0.08979642
000020 91 7c 7b 3a 4d 7f bd 3d f5 7d 05 bd c8 2a 93 bd
       0.0009593452 0.09252796 -0.032590825 -0.07185894
000030 13 c6 9c bd 35 11 81 bb ba 71 c0 38 cd ac 8b bd
       -0.07654967 -0.003938819 9.176457e-05 -0.068200685

layer1.0.bn2.weight f4 [16]
000000 93 b4 86 3f dc e5 6e 3f 57 57 86 3f a8 64 89 3f
       1.0523857 0.9331949 1.0495404 1.0733843
000010 1d cf 8f 3f cb 33 7b 3f 61 66 6d 3f c2 6b 80 3f
       1.1235081 0.98125905 0.9273434 1.0032885
000020 dc 18 85 3f 9e 7a 87 3f b2 72 87 3f 0c c9 5d 3f
       1.0398211 1.0584295 1.0581877 0.866349
000030 43 2c 6b 3f 23 45 6a 3f 5a c5 71 3f d5 59 8e 3f
       0.91864413 0.91511744 0.9444176 1.1121165

layer1.0.bn2.bias f4 [16]
000000 2f dc 64 3c 85 91 1a be 33 86 b6 bd 54 e3 87 bd
       0.0139685115 -0.15094574 -0.08912315 -0.06635156
000010 91 af 5a 3d a4 f4 31 bd 51 3d 25 bc a0 82 6f be
       0.05339009 -0.043446198 -0.01008542 -0.23389673
000020 19 70 67 be d4 0e 40 be 80 ab 6d bd 8b d2 a3 bd
       -0.22601356 -0.18755656 -0.058024883 -0.07999142
000030 5d ad 21 be ff 5f 23 bc 8c ec b1 bd 35 32 82 3d
       -0.15788789 -0.009971618 -0.08687696 0.063572325

layer1.0.bn2.running_mean f4 [16]
000000 b5 1c ec 3e cc bf d0 ba 0a 97 3f bf dd 06 89 be
       0.46115652 -0.00159263 -0.7483984 -0.2676305
000010 6b 6a 79 be b5 55 34 bf f0 2a 56 3d db 86 10 3f
       -0.24357001 -0.7044328 0.052287042 0.56455773
000020 b0 98 e0 3f 2e fa 4f bf 38 84 15 bf 9b 1e 2b bf
       1.7546597 -0.8124112 -0.58404875 -0.66843575
000030 d4 94 ab 3d ba 1f d0 bf 52 74 5b bf 95 d1 0e bf
       0.08377996 -1.6259682 -0.85724366 -0.55788547

layer1.0.bn2.running_var f4 [16]
000000 48 24 27 3f 63 68 83 3f e0 73 12 3f 9e 6e 50 3f
       0.65289736 1.0266231 0.5720806 0.8141879
000010 80 6e df 3e d0 c0 74 3f 3d 6a 33 3f b9 4e 3c 3f
       0.43638992 0.9560671 0.7008398 0.7355762
000020 6f b0 2c 3f f8 44 fa 3e c6 30 18 3f d4 ca 60 3f
       0.67456716 0.48880744 0.5944942 0.8780949
000030 ae 4e a3 3f d3 a8 b3 3f 57 42 9f 3f 02 fd 9c 3f
       1.2758386 1.4035896 1.244212 1.2264712

layer2.0.conv1.weight f4 [32, 16, 3, 3]
000000 bb 34 d6 bd e2 5d 34 3d ed b4 23 bd 4d 91 09 bc
       -0.10459276 0.044034846 -0.039967466 -0.008396459
000010 06 5d 17 3d 58 34 b6 3c 4e 8c 5f 3d 1b 83 56 bc
       0.03695395 0.022241756 0.054577164 -0.013092781
000020 d4 30 55 3c 26 43 ea 3c 59 f6 86 bd c9 c9 46 be
       0.01301213 0.028596472 -0.06589956 -0.19412912
000030 00 60 2b 3e 7f f0 27 3d 61 f1 0d 3e 4a 10 09 bd
       0.1673584 0.04100084 0.1386161 -0.0334628
000040 fc 9a 3d 3e 9a 62 bf 3d b1 eb 43 bd 9c e7 07 bd
       0.18516153 0.09344979 -0.047832195 -0.033179864
000050 1a ac a4 bd 80 df 93 3d 4d 38 99 bd 79 ad 76 3d
       -0.08040638 0.072203636 -0.07481442 0.06022403
000060 aa 30 18 be dd bf 2c be 05 ac bb bb 96 ed 05 be
       -0.14862314 -0.16870065 -0.0057272934 -0.13078913
000070 07 a5 14 3b 96 8e 49 bd 28 2f 87 3c 29 89 a6 bc
       0.0022681372 -0.049208246 0.016501978 -0.020329075
000080 4f 6e 2b 3d 60 d6 d2 bb ff ab 92 bc b3 2f 0c be
       0.041853245 -0.006434247 -0.01790428 -0.13690071
000090 7b c8 40 3d 17 ae 3a bb 38 24 da bd a9 05 3a 3e
       0.047066193 -0.0028485113 -0.106514394 0.18166222
0000a0 40 04 46 3e fe 37 39 bb dd fc 74 bc bb 3a 61 bc
       0.19337559 -0.0028262134 -0.014952865 -0.013746913
0000b0 c3 65 f7 3c b0 e5 11 3d 65 af f2 3c c2 a6 eb bc
       0.030199891 0.035619438 0.02962465 -0.02876604
0000c0 e0 67 51 bc 8f f1 54 bd f1 ab 9c 3c 8a 4c 1e be
       -0.012781113 -0.05198818 0.019124957 -0.15458885
0000d0 12 20 bc bb 55 eb 95 3c cc 5c 30 3d 9d 50 d4 bd
       -0.0057411278 0.018300692 0.043057248 -0.10366938
0000e0 62 9a ca bb 9c 67 d3 3d 77 92 e9 3d 45 f0 2e 3d
       -0.0061829546 0.10322496 0.11404889 0.042709608
0000f0 b9 58 10 3d 9b 27 b5 bc 63 2f 0d 3d 43 c9 d4 bd
       0.035240863 -0.022113612 0.03446902 -0.1038995
000100 44 b7 67 bb 85 a5 1b bc 42 c6 11 be 81 05 90 3d
       -0.0035357038 -0.009499912 -0.14235786 0.070323
000110 6e a1 09 3c fc fa 08 bd e0 65 16 3d 59 3b 80 3d
       0.008400304 -0.033442482 0.03671825 0.0626132
000120 d6 97 36 3d 9a 02 af 3d c4 89 e8 3c e4 24 22 3d
       0.044578396 0.08545418 0.028386004 0.039585963
000130 39 49 49 bd 89 e0 31 3c 09 26 3d 3d 63 ee 00 bb
       -0.049142096 0.010856756 0.04617885 -0.001967334
000140 fd 38 af 3d 6a 75 b1 3c 41 6d a5 bd 54 7c 37 bd
       0.085557915 0.021662433 -0.08077479 -0.044796303
000150 0a 07 2c 3e 27 ef 16 3c 2e 65 7c 3d e3 7e 3f be
       0.1679956 0.009212292 0.06161993 -0.18700747
000160 05 4f f2 bd 78 c9 e0 3c c8 75 3a 3c b1 8c 68 bc
       -0.11831478 0.027439818 0.01138062 -0.0141937
000170 d7 72 74 3d c9 ee 8f bc bb ce fb 3d 81 0d fa 3d
       0.059679832 -0.017569916 0.1229529 0.12209607
000180 9d 75 18 3d 82 bd a2 bd 38 e6 ba bd e7 c6 10 be
       0.03722154 -0.07946302 -0.09125942 -0.14138375
000190 6a 95 e3 bd 91 49 ab bd 92 70 b4 bd 50 2d e8 bd
       -0.11112483 -0.08363641 -0.088105336 -0.11336768
0001a0 76 59 77 3c 84 37 bb 3c 9b 70 1d 3d 56 5a f7 bd
       0.015097013 0.02285362 0.038437467 -0.12077777
0001b0 00 c6 09 3e 21 3e 66 bc 47 f0 02 bd 54 6c b4 3d
       0.13454437 -0.014052899 -0.031967428 0.088097245
0001c0 21 96 64 3d d3 0a 2d bd 8c 4d 43 3d 33 67 2a 3e
       0.055807237 -0.04224665 0.047681376 0.1664093
0001d0 5f 37 a1 3c 9a 72 e6 bd 4d 86 d1 bc ea c3 f5 bc
       0.019679723 -0.11252327 -0.025576735 -0.030000646
0001e0 d6 da ba 3c 87 fc 84 bc ce 86 95 bd 9b 7c a2 bd
       0.022809427 -0.016233696 -0.073011026 -0.07933923
0001f0 b8 a5 b1 bd d4 d7 2d 3c 90 46 1a bb b7 84 58 bd
       -0.086741865 0.0106105395 -0.0023540594 -0.05286094
000200 8a 53 6b bc b3 83 fa bb dc 99 40 3c 9c a9 a3 3c
       -0.014363179 -0.0076450943 0.011755433 0.019978337
000210 95 5a 38 be d9 08 c8 bd c6 24 cc 3c 34 29 ae bc
       -0.18003304 -0.097673126 0.024919879 -0.021259882
000220 47 53 71 bd 6f a7 a2 3d b9 f9 c2 3d 16 85 fb 3d
       -0.05891731 0.07942092 0.09520287 0.122812435
000230 b9 cb b9 3c 6c 2c f3 3c 69 8f ba 3c d2 98 c8 3d
       0.02268015 0.029684268 0.022773461 0.09794773
000240 f6 98 43 bc c9 25 e8 3d 3e 67 d2 bd 57 20 15 3c
       -0.011938324 0.11335332 -0.10273598 0.009101949
000250 1d d3 a8 bd 64 c7 54 be 27 38 52 bd d0 25 56 bd
       -0.08243392 -0.20779186 -0.051323082 -0.052282155
000260 92 77 1b be fd 48 67 3d 39 ca d9 bc c9 3a 4e bd
       -0.15182331 0.05646609 -0.026585685 -0.05034903
000270 57 89 0b bd 4a 5b c1 bd fe a7 ca bd 98 3c da 3d
       -0.034066524 -0.0944124 -0.09895323 0.106560886
000280 f0 a1 1d bd 7e a9 d9 bc c8 2a 5f 3c 4b c4 95 bd
       -0.038484514 -0.026570078 0.01362104 -0.073128305
000290 15 75 b8 bd 39 b4 0d be cb 3b a3 3c 60 2c a7 3c
       -0.090067066 -0.1383828 0.019925972 0.020406902
0002a0 6a cc ae bd d5 d8 67 bc 53 8c 07 bd 75 5a 0e 3d
       -0.08535083 -0.014150818 -0.033092808 0.034754235
0002b0 6e e6 f5 bd 01 04 4d 3d 99 59 b5 3d 42 25 25 ba
       -0.120068416 0.050052647 0.0885498 -0.00062998023
0002c0 c6 60 3a 3d c3 74 68 3c 6e a1 13 bd 1e fd 04 bd
       0.045502447 0.014187994 -0.036042623 -0.032467954
0002d0 00 ba 3d be d8 80 5c bb 6a 7e dd 3b 47 5e 5a be
       -0.18527985 -0.0033646133 0.0067594545 -0.21325026
0002e0 b7 8e 19 be a5 bb 12 be 6c 04 0b be e9 bd 25 be
       -0.14995848 -0.14329393 -0.13575906 -0.16185726
0002f0 e4 d3 cd bd d4 77 92 3d f1 85 40 be 5e 84 8e bd
       -0.100501806 0.07151762 -0.18801095 -0.06958841
000300 fc a0 9f bd 98 f8 0b be 52 94 b1 bd 74 ad 53 3d
       -0.07794377 -0.1366905 -0.08670868 0.05167909
000310 6f e9 8e bd c7 64 86 3d 78 16 cd 3d f7 69 c0 bd
       -0.06978118 0.065621905 0.10014051 -0.09395211
000320 60 93 68 bd 63 9f d0 bd 92 d0 8e bc f1 a4 1a bc
       -0.056781173 -0.101866506 -0.017433438 -0.009438739
000330 b4 58 2c 3d df e0 b9 3c 7c 9f 86 bd 76 cd d3 3d
       0.04207678 0.022690235 -0.06573388 0.10341923
000340 e9 f2 02 3d a7 1a b5 bc 35 49 f4 3d 21 a2 70 3b
       0.03196994 -0.022107435 0.11928026 0.003671773
000350 8d 70 f6 3d 7f a6 5c 3d c5 78 89 3c d0 f1 92 bd
       0.12033186 0.05386972 0.01678122 -0.07175028
000360 e6 3d 43 3d 8b 54 81 3d 19 f0 cf bc d1 12 a4 bc
       0.047666453 0.063149534 -0.025383042 -0.020028504
000370 e9 1c d5 bc 84 48 0d be b5 81 26 3d 26 29 32 bd
       -0.026014762 -0.13797194 0.040651042 -0.043496273
000380 8a 1f 9d bd bc b9 ce bc 9e 06 d8 bd 93 f3 46 3d
       -0.07672031 -0.02523505 -0.10548137 0.048572134
000390 92 d8 0a bc 4a ae 31 3d be 11 14 3e 06 97 b6 bc
       -0.008474486 0.043379106 0.14459893 -0.02228881
0003a0 b4 12 46 3d e3 43 20 bd 98 70 b1 bb 02 b6 96 3d
       0.04835768 -0.03912724 -0.0054150335 0.07358934
0003b0 9b 31 e3 bc a7 f2 59 3d 30 12 b4 3c d7 d2 b3 bd
       -0.027733615 0.053209927 0.021981329 -0.08780449
0003c0 0c c2 3e 3c d4 3b 8b bd 5c 50 87 3d f8 85 1e be
       0.011642944 -0.06798521 0.06607124 -0.15480793
0003d0 5a 91 12 bc a4 63 a3 3d ab 7c c6 3d 4a 30 3c bd
       -0.008945787 0.07977989 0.09691747 -0.04594449
0003e0 e2 f1 ac 3d 6e 71 32 be 7a 84 11 bd c2 4c 10 3d
       0.08444573 -0.17426082 -0.03552673 0.035229452
0003f0 55 49 ad bb 5c 4e db bd bc 72 0a 3c 9c 7b 10 3b
       -0.005288283 -0.10708305 0.008450206 0.0022046333

layer2.0.conv1.bias f4 [32]
000000 85 22 c8 3b f7 76 db bb ec 53 6d 3d 61 3a 8f bd
       0.0061076307 -0.0066975313 0.057941362 -0.06993557
000010 5e 67 a2 bd aa cc d6 bb 46 33 25 bd 19 fe 9f 3d
       -0.07929872 -0.0065551596 -0.0403321 0.07812137
000020 5f ad 74 bd 39 8b 93 3d 4c 7e b3 3c 42 cc 88 3d
       -0.059735652 0.07204289 0.021910809 0.06679584
000030 78 67 44 bc 48 c4 6e 3d 40 e8 a1 3c 19 28 20 3d
       -0.0119875595 0.058292657 0.019764066 0.03910074
000040 70 c6 85 3d 7b 3f 37 bb f6 b2 8a bc 07 b9 37 3d
       0.065319896 -0.0027961421 -0.016931038 0.04485419
000050 42 94 74 3c 3b 9c a7 3d c7 13 91 bd 22 a5 03 3c
       0.014927926 0.081840955 -0.0708385 0.008034976
000060 d0 6e 5d bd 13 a5 4f 3d fc 8b 77 3d 57 61 dd bb
       -0.054060757 0.050694536 0.060436234 -0.0067559886
000070 bd cc 1f 3d a9 e9 0f 3d 36 fe b0 bd 47 0c 22 bd
       0.039013613 0.035134945 -0.08642237 -0.03956249

layer2.0.bn1.weight f4 [32]
000000 2d 1b 76 3f da de 8b 3f 9d 31 6e 3f 83 1a 82 3f
       0.96135217 1.0927384 0.93044454 1.0164341
000010 ef fc 6f 3f d1 61 81 3f 97 a8 8b 3f d4 60 8a 3f
       0.9374532 1.0107976 1.0910825 1.08108
000020 2d 9e 7b 3f ed ed 80 3f 87 5b 82 3f 4a 32 80 3f
       0.9828823 1.0072609 1.0184182 1.0015347
000030 b6 1d 8d 3f 54 a4 76 3f 04 59 8b 3f c9 cd 8a 3f
       1.1024692 0.96344495 1.088654 1.0844051
000040 97 73 8e 3f 92 76 80 3f 09 91 68 3f 22 62 74 3f
       1.1129025 1.0036185 0.90846306 0.9546224
000050 d7 94 48 3f 47 2c 89 3f 19 9e 83 3f da fc 71 3f
       0.7835211 1.0716637 1.0282623 0.94526446
000060 9d f7 81 3f b6 3d 81 3f 83 fc 71 3f c7 c6 84 3f
       1.015369 1.0096958 0.9452593 1.0373162
000070 14 28 88 3f d6 f7 89 3f 43 6b 88 3f d5 c9 72 3f
       1.0637231 1.0778759 1.0657734 0.9483922

layer2.0.bn1.bias f4 [32]
000000 8e dd 10 bd 10 1d a8 3c 96 d8 61 3a ce 98 42 bd
       -0.03536754 0.02052167 0.00086153427 -0.047509007
000010 46 cc c6 bd 70 49 23 3d 6d ac 17 3d 09 b6 d5 bc
       -0.09706931 0.039864957 0.037029672 -0.026087778
000020 ad bb 57 bd e3 b0 b9 bd a7 9e e5 bc 5a 0e eb 3c
       -0.052669216 -0.090669416 -0.028029753 0.028693367
000030 a7 46 77 3d 8c 86 af bc 67 4d 0c 3c 9e 27 14 bd
       0.060370114 -0.021426462 0.008563376 -0.036170594
000040 ae 24 a8 3d da e7 18 bd ee 5e aa bd f3 44 c2 bd
       0.08210121 -0.037330486 -0.08318888 -0.09485807
000050 b9 78 76 be 33 5d be bd 11 36 14 be 08 05 13 bd
       -0.2406949 -0.0929512 -0.1447375 -0.03589347
000060 8e 51 8f bd d2 42 59 3a 89 52 19 be 75 c7 85 bd
       -0.06997977 0.000828785 -0.14972891 -0.06532184
000070 f0 4c b6 bc d3 02 8d bd e7 2e 60 bc c1 3c 9e 3c
       -0.022253484 -0.06885304 -0.013683057 0.01931608

layer2.0.bn1.running_mean f4 [32]
000000 82 14 d6 3e a6 9e 08 c0 91 c8 59 3f 23 b7 07 3f
       0.4181252 -2.1346831 0.85071665 0.5301382
000010 15 19 a5 bf d9 d7 02 40 d8 32 8c bf 22 8d 3c c0
       -1.289828 2.0444243 -1.0953016 -2.946114
000020 09 5d c2 be 5b 17 3d bf 49 49 94 3f f4 d0 09 40
       -0.37961605 -0.7386376 1.1584865 2.1533785
000030 cd 7e d0 bf 12 fe 70 be 1a 5d a8 bf 22 19 92 bf
       -1.6288697 -0.2353442 -1.3153412 -1.141392
000040 de 05 e7 3f a7 11 da 3f 13 35 39 3f 74 03 bb be
       1.8048666 1.7036637 0.7234661 -0.36526072
000050 05 e2 2f c0 3e 5f 0b bf 30 b3 a8 bf 4e a8 73 3e
       -2.7481701 -0.54442203 -1.3179684 0.23794672
000060 46 38 0e 3f fe 91 3f bf 24 4d 4a 3f 5a 83 56 bc
       0.55554616 -0.7483214 0.7902396 -0.01309284
000070 8a 24 96 3f e8 94 9a 3f a0 ef b3 be 49 64 2d 3f
       1.1729901 1.2076693 -0.35143757 0.6773115

layer2.0.bn1.running_var f4 [32]
000000 71 4a 38 40 3c ae 04 40 6f 9d 14 40 35 5b d0 3f
       2.8795435 2.0731344 2.322109 1.6277834
000010 96 03 79 40 9d 20 46 40 b7 dd d3 3f 93 35 1b 40
       3.8908439 3.0957406 1.6552037 2.425145
000020 f2 41 4e 40 8e 2c 4c 40 a1 3c dd 3f a2 85 03 40
       3.222775 3.1902194 1.7284127 2.0550313
000030 13 a0 5d 40 b9 81 bf 3f d5 c6 36 40 f1 b7 1f 40
       3.4628952 1.4961463 2.8558857 2.495602
000040 fc d3 12 40 7d 3d e7 3f bb 0a 22 40 0e 39 10 40
       2.2941885 1.806564 2.531905 2.2534823
000050 ff f9 77 40 bc fa cb 3f 07 b8 4f 40 3b a6 0c 40
       3.8746336 1.5935893 3.2456071 2.197646
000060 a3 7a 49 40 09 e2 f9 3f 5c 6f 11 40 de f9 e2 3f
       3.1481102 1.9522105 2.2724218 1.7732503
000070 f3 31 1f 40 aa 53 08 40 b8 84 ff 3f ae a7 50 40
       2.4874237 2.1301064 1.9962378 3.2602344

layer2.0.conv2.weight f4 [32, 32, 3, 3]
000000 b3 68 85 3c 3f 9d 4c bd 77 77 54 bb 13 ea 58 bd
       0.016285276 -0.04995465 -0.003241984 -0.052957606
000010 72 59 a1 bd 34 b3 79 3d e5 48 c3 bd da 17 92 bd
       -0.078783885 0.060961917 -0.09535388 -0.071334556
000020 9b 49 58 3c 9c 83 c3 bd 9d 45 a1 3d 57 e7 11 3d
       0.013201143 -0.09546587 0.07874606 0.035621013
000030 ae 0b 2b be 15 85 7a bd 36 c5 b6 bd 57 b3 6f bd
       -0.16703674 -0.061162073 -0.08924334 -0.05852064
000040 18 71 7f bd 6c f0 ad bd 16 c1 aa 3c 9a 21 6d 3d
       -0.062363714 -0.084931225 0.020844024 0.057893373
000050 e0 b6 5e bc a4 32 2a 3d 41 a7 0a bd b5 cc 68 bb
       -0.0135934055 0.0415522 -0.033850912 -0.0035522406
000060 ee 56 04 3d 65 98 79 3d fb 49 ef 3c c9 9b 52 3d
       0.032309465 0.06093635 0.029210081 0.0514181
000070 4e 41 8c 3c 0d 39 b7 3b eb 16 c6 bd 76 34 2f 3c
       0.017120983 0.005591518 -0.0967234 0.01069366
000080 dc 0b 01 be 51 eb 1d bd 84 ac 81 bd ff 1f 8a bd
       -0.1260218 -0.038554493 -0.06331733 -0.06744384
000090 51 60 f0 bb 1d d8 1c be ed 76 1f bd 6e 81 a8 3c
       -0.0073357006 -0.15316816 -0.038931776 0.02056953
0000a0 2b 58 65 3d aa 79 8c bc 13 e1 d5 bb 31 49 c9 3c
       0.055992287 -0.017147858 -0.006527075 0.024571033
0000b0 d1 29 84 bd 3d 0e 56 3c d4 58 34 3d 4d 65 17 bd
       -0.06453288 0.013064918 0.044030026 -0.036961842
0000c0 2e 62 7e 3c 96 b2 2c bc af 42 82 bc bd 5a b7 bc
       0.015526338 -0.010540625 -0.015900938 -0.022382135
0000d0 ec 01 5c bd 59 80 81 3c b1 30 ef 3c dd dc d5 3c
       -0.05371277 0.015808271 0.029198023 0.026106292
0000e0 d1 7a 3a 3d f7 48 04 bd 27 b3 02 be 0b a7 11 3d
       0.045527283 -0.032296147 -0.12763654 0.035559695
0000f0 ca 89 a0 bd a0 29 3e bd d2 5c 27 bd 86 e1 2f bd
       -0.07838781 -0.046426415 -0.040860005 -0.042939685
000100 da 53 10 bd bd f5 0b 3d e2 40 10 bd 73 04 96 3d
       -0.035236217 0.0341699 -0.035218127 0.07325067
000110 07 cc 1e bb fe 89 34 bd 86 22 da 3d 95 c9 92 3d
       -0.0024230496 -0.044076912 0.10651116 0.07167355
000120 07 19 0e 3c cc 70 d5 3d 9b c8 10 3d dc f6 64 3d
       0.008672959 0.10421905 0.035347562 0.055899486
000130 02 04 ef 3c a9 ff ba 3c 6c 66 a0 3d 41 9f 5d 3d
       0.029176716 0.022826986 0.078320354 0.054106954
000140 ba 99 d4 3d fe f4 b4 3c f5 b2 d3 bb 40 2e 24 3d
       0.103808835 0.022089478 -0.0064605423 0.04008317
000150 c6 cd 8c 3c bc be e7 bc 41 b1 a7 bd 0d b7 94 bc
       0.017187964 -0.028289191 -0.081881054 -0.018153692
000160 9d 91 94 3b d3 31 de bc d0 46 17 3d a7 29 d6 bc
       0.00453396 -0.027123367 0.036932766 -0.026142908
000170 9f a4 ba 3b 74 19 4e bb 2b 11 20 3d 3b 72 ff bd
       0.005695894 -0.0031448277 0.039078873 -0.124729596
000180 ef 4e 86 3d 93 7e 34 bc e1 98 f6 3d 87 c9 52 3d
       0.06558024 -0.011016506 0.12040878 0.051461723
000190 26 d2 44 bd b3 b7 93 bc f4 be 04 bc 9c 8b c0 bc
       -0.048051976 -0.01803193 -0.008102167 -0.023504071
0001a0 a1 ff 39 bd 9b 8d 46 3d 01 e2 91 3d c4 70 c2 bd
       -0.045409802 0.04847489 0.07123185 -0.094941646
0001b0 65 fc 51 3d 3d f8 47 be 84 3f 19 be 2d 75 5f 3d
       0.051266093 -0.19528289 -0.14965636 0.054555107
0001c0 90 01 a8 bd b3 b3 08 be 17 9a 58 bd 86 da 09 be
       -0.08203423 -0.133498 -0.052881327 -0.13462266
0001d0 cd c3 9e bd e0 09 8c 3d cc c8 9d bc 99 d0 e2 bc
       -0.0775219 0.06837821 -0.019260786 -0.027687358
0001e0 3a fb 2b 3d 6b 88 26 bd b9 82 7a bd a4 e4 09 3c
       0.041987635 -0.040657442 -0.061159823 0.008416329
0001f0 04 01 57 bd 87 26 1c 3d d2 f8 5b bd 85 44 41 bd
       -0.052491203 0.03812268 -0.05370409 -0.047184486
000200 e9 1c 3e be d1 1f bc bd aa 06 9d bd 5a e2 4a be
       -0.18565716 -0.09185756 -0.07667287 -0.19812909
000210 e1 72 78 bd 43 c8 08 be 9c 25 a7 bc 37 d2 a5 bd
       -0.060656432 -0.13357644 -0.020403676 -0.08096736
000220 c3 40 16 bd 9f 41 cb bc fa 0a 21 bd 17 63 51 bd
       -0.036682855 -0.024811564 -0.03931711 -0.05111989
000230 ee 92 29 be c5 bb b9 3c 38 19 ed 3b d9 46 2e 3d
       -0.16559955 0.022672543 0.0072356723 0.042548034
000240 8a 32 a6 bc c6 66 a1 3d ce 28 7e 3d b8 8e 83 bd
       -0.02028777 0.078809306 0.062050633 -0.06423706
000250 7d 58 ad bc 86 94 e5 3d f3 1d e6 3b fc b1 f3 bd
       -0.021160359 0.11209969 0.007022613 -0.11899182
000260 8c 0b 8d 3d 9c 56 52 3b c1 cf 89 3c 33 25 20 3c
       0.06886968 0.003209508 0.016822698 0.009774494
000270 ac be d5 3c 38 b0 da bd d1 0a b5 3d ca de 7b bc
       0.026091896 -0.10678142 0.08839954 -0.015372941
000280 38 80 e5 bc d1 87 a0 bd a7 a0 7d 3c de 02 8d bd
       -0.028015241 -0.07838405 0.015480197 -0.068853125
000290 cf 0f 38 3d 07 af 5e 3d e7 fb a5 3d 82 3c f9 3a
       0.04493695 0.054366138 0.08104687 0.0019015225
0002a0 af 8e 37 bd 91 18 01 bd 01 21 7d bc 28 24 bf 3c
       -0.044813808 -0.03151757 -0.015449763 0.02333267
0002b0 d5 5b e5 bd 27 89 32 bd f0 b5 11 3d 99 a1 db bb
       -0.11199156 -0.04358783 0.0355739 -0.0067026136
0002c0 a4 0d 6c 3d c6 b7 b8 3d 08 45 55 bd f2 78 1c bd
       0.057630196 0.09019427 -0.052067786 -0.03820128
0002d0 e1 e9 2b bc 2c a6 7d bb c8 ac f3 bd 5f b6 43 3d
       -0.010492773 -0.0038703782 -0.1189819 0.047781345
0002e0 dd f0 ac 3d 9a a9 05 bd 9f 16 b9 3d 52 4f 86 bc
       0.084443785 -0.032632448 0.09037518 -0.016395245
0002f0 3a 9e de 3b 83 1f 8e 3b 03 5d 07 3e 4a f9 e6 3d
       0.0067937644 0.0043372526 0.13219075 0.11278017
000300 a8 41 2a 3d 5b 3f 41 3d 3f 89 d8 3d af 5d 80 bc
       0.04156652 0.04717956 0.105730526 -0.015669672
000310 7f dd 23 bd 98 b2 65 3d ae 6e b8 3b 36 a8 0a 3c
       -0.040006157 0.056078523 0.0056284284 0.008462956
000320 c3 81 6f bd c5 78 23 bd 12 30 38 bd d8 a2 c1 bb
       -0.05847336 -0.039910097 -0.04496772 -0.005909305
000330 52 5b 2e 3c 69 9e 8e bd 96 4e b5 bd 76 a5 1c 3d
       0.01064189 -0.06963808 -0.0885288 0.038243733
000340 6d 98 20 3d 23 7c a2 3d 93 02 39 bc 23 ee df 3d
       0.039207865 0.079338335 -0.011292118 0.10934093
000350 56 fe 8b 3d c0 a7 5c bd e8 66 56 3a ad a1 3b 3d
       0.0683562 -0.053870916 0.00081787864 0.045808483
000360 cf e0 ed bd 02 66 0f bc 81 c1 cc bd aa c1 6e bd
       -0.116151445 -0.008752348 -0.099978454 -0.05829016
000370 09 7d 04 bd ba 4e 25 be 22 3c bd bd 1c 28 c9 bd
       -0.032345805 -0.16143313 -0.09239985 -0.098221034
000380 7a 7e 2e bd b0 89 6e 3c 3d 81 82 bd 33 3f 5c 3d
       -0.042601086 0.014559194 -0.063723065 0.05377121
000390 e3 72 ab bb 93 ce 5a bd 28 eb 90 3c 6b 54 a4 bd
       -0.0052322014 -0.05341966 0.017690256 -0.08023914
0003a0 40 c9 00 be 80 7e e4 bb 39 6a 42 3d 62 88 81 3a
       -0.12576771 -0.006973088 0.047464583 0.0009882564
0003b0 82 d8 85 bd 1d 36 d9 bd af 84 84 bd b3 18 02 bd
       -0.06535436 -0.106060244 -0.0647062 -0.031761836
0003c0 c3 da bd bd 51 f9 a5 bd dd 07 77 bd 70 9a aa bc
       -0.09270241 -0.08104194 -0.060310233 -0.020825595
0003d0 12 b2 d1 3c 9d 9f f3 bc d6 07 ae 3d fd 3a 18 3e
       0.025597606 -0.029739195 0.08497588 0.14866252
0003e0 38 6c 50 3d 50 f8 3a 3d f2 23 e8 bb eb 4f 3d 3e
       0.050884455 0.045646966 -0.007084363 0.18487518
0003f0 24 13 c1 3d 68 9c 36 3d e5 cc d0 3c c4 41 78 3d
       0.09427479 0.044582754 0.025488326 0.060609594

layer2.0.conv2.bias f4 [32]
000000 4c 27 29 bd bd 9f e1 bc 2e 8f 81 3d 43 93 4f 3d
       -0.041297242 -0.02754199 0.063261375 0.05067755
000010 2f 38 4b 3d 00 ba 52 bd ab e6 3a bd b1 63 0a bd
       0.049614128 -0.051446915 -0.04563014 -0.03378648
000020 9c b4 24 3d 0c ab 97 bb aa 32 ab 3c 11 3d 57 3d
       0.040211305 -0.0046285447 0.020898182 0.05254847
000030 70 a3 19 bd 85 93 4d bd 8f a0 ca 3c 51 a1 1c bc
       -0.03750938 -0.050189514 0.024734763 -0.009559945
000040 07 89 72 bc 13 7d 0b bd ef 55 99 bc 00 a6 3a 3c
       -0.014803178 -0.034054827 -0.018717734 0.011392117
000050 6e 7e e0 bc 63 fa d7 bc f0 19 96 bc 3a 62 09 bc
       -0.027404036 -0.02636451 -0.018322915 -0.008385235
000060 e4 db 0a bd a0 e4 4e bd 19 09 46 3d 91 8d 96 3b
       -0.03390111 -0.050511003 0.04834852 0.0045945127
000070 a8 08 92 ba 69 68 36 3d c9 f3 32 3d 1c 6b a4 ba
       -0.0011141496 0.044533167 0.043689523 -0.0012544128

layer2.0.bn2.weight f4 [32]
000000 72 9f 81 3f 17 72 67 3f bf 7d 90 3f 69 a5 83 3f
       1.0126784 0.9040846 1.1288375 1.0284854
000010 a7 df 78 3f 15 bd 81 3f 5c a9 8b 3f 89 77 87 3f
       0.97216266 1.0135828 1.0911059 1.0583354
000020 89 31 81 3f 58 0b 92 3f 7f 87 84 3f cf 99 8b 3f
       1.0093242 1.1409712 1.035385 1.0906314
000030 7a 0f 7d 3f 6d b3 7c 3f 42 f0 8c 3f 14 dd 74 3f
       0.9885174 0.9871128 1.1010821 0.9564984
000040 a7 94 89 3f e3 80 8d 3f 37 9d 94 3f 4c 29 5f 3f
       1.074849 1.1054958 1.1610478 0.8717239
000050 35 71 64 3f 2f be 83 3f 9c f4 7c 3f 16 5b 75 3f
       0.8923524 1.0292414 0.98810744 0.9584211
000060 a0 2f 80 3f 31 79 82 3f 6d 5a 85 3f 46 2d 87 3f
       1.0014534 1.0193235 1.0418221 1.0560691
000070 8c 5f 7e 3f b2 01 6e 3f 40 68 95 3f 58 fc 80 3f
       0.9936454 0.92971337 1.167244 1.0077009

layer2.0.bn2.bias f4 [32]
000000 ad ea 63 3a 78 f3 20 bd 92 e4 9a bc 06 d1 3c bd
       0.0008694332 -0.03929469 -0.018907819 -0.046097778
000010 b3 f0 ed bd 44 38 90 bd 1a d3 38 bd bc 04 cc bd
       -0.11618175 -0.07041982 -0.045123197 -0.099618405
000020 d4 70 84 3b be a0 f8 3c c0 9e f2 bc fe 33 94 bd
       0.0040417705 0.030350085 -0.029616714 -0.07236479
000030 06 53 c3 bd c9 51 c5 bd c4 3a f0 3c 1c de cd bd
       -0.0953732 -0.0963474 0.029324897 -0.100521296
000040 05 3a f8 3b 43 d6 ae bd 59 ed 88 3b 16 8d 86 bd
       0.007575276 -0.08536961 0.0041786847 -0.06569879
000050 10 59 bb bd 31 54 57 3d fb 03 9e bd 43 f8 ac bd
       -0.09147847 0.052570526 -0.07715603 -0.0844579
000060 c5 9d cd bd 64 3a 0d be 7f 83 cf bd 15 70 85 bd
       -0.10039858 -0.13791806 -0.10132503 -0.065155186
000070 bc e5 65 bd b6 fa e2 bd bd 6f 45 3d 2b 04 4b 3c
       -0.056127295 -0.110829756 0.048202265 0.01239113

layer2.0.bn2.running_mean f4 [32]
000000 9a 83 81 bf e9 e3 19 3f 8e ae 0f bf cb ef 1d bd
       -1.0118287 0.6011339 -0.56125724 -0.038558763
000010 91 33 d6 be 7e ec 1d 3d 06 9a 6a bf 13 21 d4 3e
       -0.41836217 0.038555615 -0.9164127 0.41431484
000020 74 15 20 bf 90 d1 a1 3f 6b e7 59 3f 87 93 da bd
       -0.62532735 1.2642078 0.8511874 -0.1067267
000030 70 73 18 3d 97 3f 0a 3f ee a6 06 bf f5 f2 b4 bd
       0.037219465 0.5400328 -0.52598464 -0.08835403
000040 97 89 af bd aa 36 94 be a8 66 a8 bf 1a 12 13 3f
       -0.08571165 -0.28947955 -1.3156328 0.57449496
000050 54 56 a6 3e b8 59 c0 3c 64 06 21 3f 34 c7 95 be
       0.32487738 0.023480281 0.62900376 -0.29253542
000060 4a 73 3a be a1 89 a5 bf 16 16 b4 3f 5a 01 d9 bc
       -0.18208042 -1.2932626 1.406924 -0.026489902
000070 c9 cf ee be 64 08 dc bf 3f 39 9b bf 1c 13 19 bd
       -0.46642902 -1.7190061 -1.2126845 -0.03737174
